best_optimized_model.pth (torch, 309935 bytes, 44 tensors)

conv1.weight f4 [10, 1, 3, 3]
000000 78 e4 f7 3c c2 4c 0e 3d 93 06 a2 3d b9 17 a0 be
       0.03026031 0.03474117 0.0791141 -0.312681
000010 b1 83 b1 3b 1c 95 79 3e bc bd 27 3e 56 17 ad be
       0.00541731 0.24373287 0.16380972 -0.33806866
000020 e5 6c 15 be 5f b6 7a 3d c1 63 e7 3c 6f 6d 8a be
       -0.14592321 0.06120908 0.028245809 -0.27036616
000030 8f 0d 9e 3d 13 b7 05 bd 33 66 39 be b0 23 24 3e
       0.0771743 -0.032645296 -0.18105392 0.16029239
000040 8c 77 9e bb 71 5d 3b 3e f1 e2 87 3c 19 11 0f be
       -0.0048360284 0.18297364 0.016587706 -0.13971366
000050 a7 1c e0 bd ba 96 9d be 0b ac f3 bd 08 3f 74 be
       -0.10942965 -0.30779058 -0.11898049 -0.2385217
000060 b3 74 51 3b b5 a5 59 3e c5 f3 86 3e 20 a2 7c 3e
       0.0031960427 0.21254618 0.26357856 0.24671221
000070 9f ae 2f 3e 2e 78 a6 3e ff 1b 36 be 43 45 29 3e
       0.17156456 0.32513565 -0.17784117 0.16530327
000080 e7 0a db be 71 79 21 3e 05 75 9c 3d 09 8c 6d be
       -0.42781755 0.15768982 0.07639507 -0.2319795
000090 9d 07 1e bd 97 61 c2 3e ca 0b 11 3e 21 b4 1c be
       -0.03858148 0.3796508 0.14164653 -0.15303089
0000a0 a2 73 0e be 0b 49 51 be 4a 78 a9 be fd 0b 98 bd
       -0.13911298 -0.2043802 -0.33099586 -0.074241616
0000b0 17 32 54 be ff 6c 7d bd e3 10 e9 bd c8 9a 80 be
       -0.20722233 -0.061871525 -0.11380174 -0.2511809
0000c0 28 b1 81 3e dc 3d 54 3c 56 2f 88 be f2 47 7a 3e
       0.25330472 0.012954202 -0.26598614 0.24441507
0000d0 c4 9a 80 3e 11 b2 4e 3e c8 ee 11 be 4f 6d 87 3e
       0.25118077 0.20185114 -0.14251244 0.26450583
0000e0 23 d5 c6 3d 88 e1 4c 3e f4 dd 98 bd 31 0f 57 3e
       0.09708621 0.20007908 -0.07464209 0.21001889
0000f0 7e 31 44 bd bf ca f0 bd 28 59 9b be e2 00 9f 3c
       -0.047898762 -0.11757421 -0.30341458 0.0194096
000100 f2 03 31 be cf fb 47 3d e8 de 8b 3a 9b 1b 97 3d
       -0.17286661 0.048824128 0.001067129 0.07378312
000110 4f 8d 4e be dc ff 48 3e b6 0d 7a 3e 69 26 2d 3e
       -0.20171092 0.19628853 0.24419293 0.16909184
000120 4c 7d 1d 3d 18 03 c8 ba ed ee 98 bd af 3a 47 3e
       0.03844957 -0.0015259711 -0.074674465 0.1945598
000130 d0 3a 12 be 57 b3 82 3c 4b e4 f9 3d d0 b7 c1 be
       -0.14280248 0.015954657 0.122017466 -0.3783555
000140 e1 e3 c4 3d 78 fc 34 bd 4e b6 03 be 57 66 13 3e
       0.09613777 -0.044186085 -0.12862512 0.14394508
000150 23 57 72 be bc ba 49 bc 0d 93 9d 3e d6 f2 0b be
       -0.23666053 -0.012312587 0.30776253 -0.13666853
000160 aa b0 8a 3d f5 de 02 3e
       0.06771977 0.12780364

conv1.bias f4 [10]
000000 40 16 ae bd dd d8 10 3e f2 98 82 3e fd 8b 92 3e
       -0.085003376 0.14145227 0.25507313 0.28622428
000010 0f bd 1f 3d d4 7e f6 bd 42 39 6d bd 3b 8e 87 3e
       0.03899866 -0.12035909 -0.057915933 0.264757
000020 ac 83 7a 3e a0 8c 88 3e
       0.24464291 0.26669788

bn1.weight f4 [10]
000000 f1 5f 86 3f 36 08 86 3f 75 56 8e 3f 23 4e 6f 3f
       1.0498029 1.0471256 1.1120135 0.934786
000010 20 ed 92 3f fa 4a 80 3f e0 a6 7a 3f 57 97 6f 3f
       1.1478615 1.0022881 0.9791088 0.935903
000020 90 d8 76 3f 84 d5 75 3f
       0.964242 0.96028924

bn1.bias f4 [10]
000000 ef 5c 7c bc 7a d8 88 bb f9 6e a5 bc 09 aa 8a bd
       -0.0154030165 -0.0041761966 -0.020194517 -0.06770713
000010 f9 1b 3c 39 01 bd 16 3c 90 e7 86 bd 7f c7 85 bd
       0.00017939498 0.0092003355 -0.06587136 -0.065321915
000020 f4 e1 fa bd 2e b6 7a bd
       -0.122501284 -0.061208896

bn1.running_mean f4 [10]
000000 b2 41 b1 bd e3 b7 13 3e 0f 02 82 3e 22 b2 96 3e
       -0.086551085 0.14425616 0.25392196 0.2943278
000010 57 0b d5 3c ee ef ea bd 26 21 7c bd a2 d4 8c 3e
       0.026006384 -0.11471544 -0.06155505 0.27505976
000020 a1 a6 7d 3e 35 f9 89 3e
       0.24770595 0.26947942

bn1.running_var f4 [10]
000000 9a d6 ed 3d 80 28 cf 3d c2 ad 99 3e 74 ba 92 3e
       0.116131976 0.10115147 0.3001538 0.28657877
000010 25 84 f3 3e ea 57 a5 3e 42 47 07 3e 1c a5 3b 3e
       0.47561756 0.32293636 0.13210776 0.18324703
000020 7d 3e a5 3d b3 e7 59 3e
       0.08068559 0.21279792

conv2.weight f4 [16, 10, 3, 3]
000000 e4 3a 97 bc e2 79 91 3d b5 9f af 3d a3 c5 85 3d
       -0.018460698 0.071033254 0.085753836 0.06531837
000010 19 cb 73 3d d1 a7 e1 bd 4f 10 3a 3d 6c 46 b2 3b
       0.05951986 -0.110183366 0.04542571 0.005440524
000020 9c 4c 42 be 04 d8 1b 3d 81 29 97 3d 75 ac b4 bc
       -0.18974537 0.038047805 0.07380963 -0.02205489
000030 3e 97 59 3c 89 4c 17 3e 9e c4 3d bd 13 2f 87 3c
       0.013280688 0.1477529 -0.046330087 0.016501939
000040 92 7d 86 3d f6 8b 28 be b5 9e af bb ed 21 a0 bd
       0.065669194 -0.16459641 -0.0053594955 -0.07818971
000050 0d 55 9d 3b 6e e3 27 3d 49 b5 21 3d 27 aa 8d bc
       0.0048013986 0.04098838 0.039479528 -0.017293049
000060 26 d6 95 bd 23 25 36 bd d3 22 2c 3e 7b 82 9a 3c
       -0.07316236 -0.04446901 0.1681016 0.018861046
000070 d8 37 f6 3d 16 8d b2 3d 40 63 f2 bd 46 a5 6f bd
       0.1202237 0.08718316 -0.11835337 -0.058507226
000080 3a 0c f4 bd ee 8f 27 bd 25 c4 f8 bd de 05 83 bd
       -0.119163945 -0.040908746 -0.121467866 -0.063976035
000090 f7 37 b8 bd cf d6 62 3b be 2c 0c 3e 06 12 68 bc
       -0.089950494 0.00346129 0.13688943 -0.014164453
0000a0 4c a1 e2 3c 09 b1 fa 3d b4 72 8f bd 64 7e 64 bd
       0.027664803 0.12240798 -0.070043 -0.055784598
0000b0 59 26 af 3b 93 5e db 3c f9 5b 14 bd d2 9e a1 3c
       0.0053451476 0.026778495 -0.036220524 0.019729052
0000c0 a2 be f0 3d 1b ca f0 3a 29 83 77 3c 51 11 e2 bd
       0.1175511 0.0018370779 0.015106955 -0.11038459
0000d0 59 b2 01 be e1 15 5f b9 e7 55 5b bc d6 9b d9 3d
       -0.1266569 -0.00021275088 -0.01338718 0.106254265
0000e0 c3 2f 34 3d e0 bc 0e be 8d 98 5c bc f6 37 03 be
       0.04399086 -0.13939238 -0.013464105 -0.12814316
0000f0 72 13 19 3c c1 e4 69 3d c6 7d 5a bd 4e ea 71 3d
       0.009343015 0.057102922 -0.053342603 0.05906134
000100 f2 df c1 bd 32 fc ae bc 7c 60 9c 3d df 10 15 3e
       -0.09466542 -0.02136049 0.076355904 0.14557217
000110 88 2c 87 3d 74 48 b6 3c 00 ff a2 3d de 80 65 bd
       0.066002905 0.022251345 0.07958794 -0.0560311
000120 25 51 5b bd 9d 64 f3 bd b9 5a a7 3c ed b4 03 be
       -0.053544182 -0.11884425 0.020429002 -0.12861986
000130 b5 ba f0 bd c4 cb 09 bd 93 5c 88 bd d5 2d fd bd
       -0.117543615 -0.03364159 -0.06658282 -0.123622574
000140 8c b7 88 bd 40 04 74 3d 82 69 8a bd f5 50 03 3d
       -0.06675634 0.059574366 -0.06758405 0.03205963
000150 d6 c6 0b bd 69 e9 89 bd ca 5a 0c bc 98 f4 28 3d
       -0.03412517 -0.067339726 -0.008566568 0.041248888
000160 19 6e c1 bd 5d 36 5c 3d 79 c3 07 be e0 8a 2d bd
       -0.094448276 0.053762782 -0.1325816 -0.04236877
000170 e0 7e a2 bd 12 ec 9a 3b 21 2e da 3d 49 f0 8e bd
       -0.07934356 0.004727849 0.1065333 -0.069794245
000180 54 c7 78 3d 7a 8c df bd c0 e7 d4 bc 32 db 5d 3e
       0.06073697 -0.10915466 -0.025989413 0.21665648
000190 3e f2 08 bd 48 dc 83 bd f3 e3 3c be d8 b8 67 be
       -0.033434145 -0.064385 -0.1844633 -0.22629106
0001a0 63 66 80 bd 56 b7 f3 bd 84 b7 bd 3a da ff 34 3d
       -0.06269529 -0.11900203 0.0014474248 0.04418931
0001b0 77 b7 24 3e 01 8e fc 3d e9 00 7a bd 90 18 9b bc
       0.16085611 0.123317726 -0.061036024 -0.01893261
0001c0 8e 2b 64 bd 1b a2 99 bd bd 60 d8 bd 13 16 47 bd
       -0.0557056 -0.07501622 -0.10565326 -0.048605036
0001d0 20 e1 ea 3c 6b 9f fb bb 83 65 ca bc aa 30 e8 3c
       0.028671801 -0.007678916 -0.024706608 0.028343517
0001e0 c7 93 88 3d e3 da 5a bc de f6 64 3d 59 35 d0 3c
       0.06668811 -0.013357851 0.055899493 0.025416063
0001f0 e7 24 b8 3d e4 d1 90 3d 7d eb 41 3d 4e 1e af 3d
       0.089914136 0.070712835 0.04734372 0.08550702
000200 aa 79 14 3e 79 49 e9 3d 43 a2 a7 3d 29 8e 8d 3d
       0.14499536 0.11390967 0.08185246 0.069118805
000210 83 1b 13 be ae 0c b5 bb 84 cd a2 3d 1d 11 37 3e
       -0.14365964 -0.005525193 0.07949355 0.17877622
000220 e4 53 bf 3c 3c 3d a3 3c bd 4b ff bb ea 89 ad bd
       0.023355432 0.01992666 -0.007791011 -0.08473571
000230 b9 73 a6 bd 14 f9 27 3d 0a 4d 84 bc 52 6a 84 bd
       -0.08127541 0.041009024 -0.016150016 -0.064655915
000240 c9 0a c4 3d 6d f5 a5 bc 1e a3 af 3d 0f fc 82 3d
       0.095723696 -0.02025863 0.08576034 0.063957326
000250 d7 17 9b bc 7f ec ec 3d a1 10 c1 3d 98 92 91 3b
       -0.018932266 0.115685456 0.09427 0.004442524
000260 92 a8 d1 bd de d3 8e bc 1c 8d dd 3d c4 28 d9 3d
       -0.1023723 -0.01743501 0.1081793 0.106034786
000270 8a 48 9d 3d 64 a2 1f bd 51 05 f1 bd bb 29 8d 3d
       0.07679851 -0.038973227 -0.11768592 0.06892725
000280 61 95 be 3c d3 2f 13 3d 5a 9f 14 bc b3 60 af bd
       0.023264589 0.03593428 -0.0090711955 -0.08563366
000290 a0 61 da bd f2 b2 cc bc fa 63 0d bd 62 36 4e 3c
       -0.10663152 -0.024987672 -0.034519173 0.012586208
0002a0 f8 82 3f 3a ca 60 e9 3c cd 0e cf bd 8c ce e4 bc
       0.00073055876 0.028488535 -0.10110245 -0.02793052
0002b0 89 f9 b4 3b 9f 29 37 3d 2b cc 53 bd 3e 4e f1 bc
       0.005522911 0.044717427 -0.05170838 -0.029456254
0002c0 c0 e2 9c bd 45 ce eb bd 62 49 0c be 67 5e cd 3d
       -0.07660437 -0.11513952 -0.13699868 0.100277714
0002d0 8b 68 a8 3d 9c 87 13 bd fa ea 27 3e 61 67 9c 3d
       0.08223065 -0.036018 0.1639823 0.076369055
0002e0 a7 0b b7 bc 26 7b 8a bd a4 35 ee bc d5 96 c0 3d
       -0.022344423 -0.0676177 -0.029078312 0.09403769
0002f0 29 33 06 3d 60 18 01 3c 2a 24 fc 3d d6 de 17 bd
       0.032763634 0.007879347 0.12311585 -0.037077747
000300 1e e4 24 be 17 0b d1 bd f9 46 b9 3d 61 73 c1 bd
       -0.16102645 -0.10207193 0.0904674 -0.09445835
000310 9d 92 81 bd ca a8 96 3d 5f 36 a6 3c 0b 8e 1f bd
       -0.063267924 0.07356413 0.020289598 -0.038953822
000320 de 0f 43 be 30 bb 00 be 1b 12 c3 bd 9b 08 69 be
       -0.19049022 -0.12571406 -0.09524938 -0.22757189
000330 3e 94 f9 bd 58 d5 21 be 6f 06 2e bd 4a d3 6a bb
       -0.12186478 -0.1580404 -0.042486604 -0.0035831505
000340 5f 84 cc 3d 33 1a c0 3b 48 bc 25 3b 0d e4 40 3d
       0.09986185 0.005862498 0.0025289226 0.047092486
000350 32 9d fb bd 14 b5 ab 3c 86 cb 83 3d 02 9f 85 3d
       -0.12285842 0.020960368 0.064353034 0.06524469
000360 d4 0e 73 bd 18 47 01 3e 38 28 e3 bd e0 40 0e be
       -0.059340313 0.12624776 -0.110916555 -0.13891935
000370 1c 43 42 be 18 88 2f bd 96 25 8c bc 95 66 52 bd
       -0.18970913 -0.0428544 -0.017107766 -0.05136736
000380 e5 9e 4c 3d 69 35 1b 3d 60 22 07 3e 56 ca 5f bd
       0.04995622 0.037892733 0.13196707 -0.054636322
000390 76 d9 a2 bd 3b 62 e3 bd 1b 45 e5 3d 3b 5c d1 bd
       -0.07951634 -0.1110272 0.111948214 -0.1022267
0003a0 cd c7 5b 3d e9 bb 2c bd bc 01 26 be 7f ac fe 3b
       0.05365734 -0.042171393 -0.16211599 0.007772028
0003b0 55 32 e5 bc 67 61 13 bc 7f fe 23 be ac a0 47 3d
       -0.027978102 -0.0089953905 -0.16015051 0.048737213
0003c0 78 55 87 bd f8 23 df 3c 29 27 a5 3b 4d dc 6e bd
       -0.06608099 0.02723883 0.0050400686 -0.058315564
0003d0 1d b6 80 3d 3d 27 9e bd 8f ba 08 3d cf 63 8e 3d
       0.06284735 -0.07722328 0.03338104 0.06952631
0003e0 60 2f 13 3d 76 3a a6 3d 26 29 1a bd c5 44 04 3e
       0.035933852 0.08116619 -0.0376369 0.12916858
0003f0 19 e9 05 bd 21 a4 97 bd 4b b4 de 3c 70 ef 09 bc
       -0.032693002 -0.07404352 0.02718558 -0.008418903

conv2.bias f4 [16]
000000 f8 5e 07 3d 0d ff c9 bd 23 d1 40 3d 7e 0a d0 bd
       0.033049554 -0.098631 0.04707445 -0.10158251
000010 eb 22 5b 3d 4b 22 83 3d eb 97 0c be d4 4a e1 bd
       0.053500097 0.06403025 -0.13729827 -0.110006005
000020 04 a2 06 3c 9c 3b 0b bd f6 86 6b 3d ec c8 f8 3d
       0.0082173385 -0.033992395 0.057501756 0.12147698
000030 de 74 d4 bb 3b 35 7a 3d 86 88 04 3d 5b b2 0e be
       -0.006483658 0.06108592 0.03235676 -0.13935225

bn2.weight f4 [16]
000000 cb f7 6a 3f bf 4d 7f 3f 17 90 63 3f 9b 20 79 3f
       0.9178435 0.99728006 0.8889174 0.97315377
000010 ae 85 7e 3f e4 f8 89 3f cf 5d 83 3f d1 9a 82 3f
       0.9942273 1.077908 1.0263003 1.0203496
000020 3d 2d 8c 3f 38 a4 7d 3f b3 37 81 3f 5a f8 82 3f
       1.0951306 0.990787 1.0095123 1.0232041
000030 6f f0 72 3f 7d 2a 82 3f 51 dd 64 3f a4 07 8e 3f
       0.9489812 1.0169216 0.894002 1.1096082

bn2.bias f4 [16]
000000 7a 56 b4 be 24 1d fe bd bb c5 30 be 8b 1c 55 be
       -0.35222226 -0.12407902 -0.17262928 -0.2081167
000010 6c e2 b3 bd 63 06 7e 3c 3c d1 13 be 2c 9e b5 bd
       -0.08783421 0.015504452 -0.14435285 -0.088680595
000020 72 cf 4b 3a f6 e4 3d be 67 21 77 be 88 2d a5 bc
       0.0007774747 -0.18544373 -0.24133836 -0.020163313
000030 aa 19 f3 bd 94 9f 23 be d1 2a d4 bd fc bf 20 bd
       -0.118701294 -0.15978843 -0.10359729 -0.03924559

bn2.running_mean f4 [16]
000000 41 43 9a bd df 50 f8 bc 75 48 f4 be af 59 3f bf
       -0.07532359 -0.030312 -0.4771153 -0.7474622
000010 81 90 02 bf 41 68 91 be c8 62 c8 be 8b 33 e3 be
       -0.51001745 -0.28399852 -0.39137864 -0.44375262
000020 93 96 0c bf b6 47 d4 be 81 f3 70 be 4f c0 1f 3e
       -0.5491726 -0.4146096 -0.2353039 0.15600704
000030 39 a0 9e be bc ba 65 be c7 81 4f be 97 e9 e5 be
       -0.30981615 -0.22434515 -0.2026435 -0.44904777

bn2.running_var f4 [16]
000000 e0 83 81 3e e4 be d7 3e 58 8e 7c 3e 8a 8a 26 3e
       0.25295925 0.42137825 0.24663675 0.16263786
000010 47 5e 8b 3e 18 bd 41 3f 88 12 04 3f c3 4a 20 3f
       0.27220365 0.7567916 0.51590776 0.6261408
000020 6a 2f 2c 3f a3 11 9f 3e df 3a ee 3e b6 b3 30 3f
       0.6725985 0.31068143 0.4652929 0.6902422
000030 41 28 1a 3e c9 68 c3 3e 39 e3 25 3f 2b 75 df 3e
       0.15054418 0.38165882 0.6479984 0.4364408

conv3.weight f4 [24, 16, 3, 3]
000000 af 07 8f bc b9 21 7a bc b5 f8 0b bb 14 e5 21 3d
       -0.017459719 -0.015266829 -0.0021357958 0.039525107
000010 a9 70 a8 3d 56 5b e2 3d b6 44 9f 3c 88 a4 be 3c
       0.08224613 0.11052577 0.019441944 0.023271814
000020 a6 aa 11 3d 27 bb c4 3c 21 f5 0e bd bd e5 e3 3b
       0.035563134 0.024015022 -0.034901742 0.006954877
000030 cc c9 cc bc 01 da 58 bd 16 87 08 bc 3a 67 6f bd
       -0.024998568 -0.05294228 -0.008332988 -0.058448054
000040 b7 c6 9f bd ea 19 2e 3c a4 a8 9c bd 6f ca 92 bd
       -0.07801574 0.010626296 -0.07649353 -0.071675174
000050 15 13 61 3d 57 15 8c 3c b1 f2 d8 bd df be be bc
       0.05494984 0.01710002 -0.10593165 -0.023284374
000060 37 cb 14 3d 9b 3d ca 3c 45 c4 06 3e 08 0f 81 bc
       0.036326613 0.024687579 0.13160808 -0.015754238
000070 c7 22 83 bb 9e e0 ba 3d d1 cc 66 bd 6e 21 11 be
       -0.0040019485 0.091248736 -0.056347672 -0.14172909
000080 82 5f 86 bd a4 84 01 3c 78 1a 8e 3d 8a f0 22 3d
       -0.065611854 0.007905159 0.06938642 0.039780177
000090 da 00 56 3d dc 1e a5 bc df 6e 75 bc 63 82 a2 3b
       0.052246906 -0.020156316 -0.014980047 0.004959391
0000a0 97 3b bf bb e2 26 73 3c ee 66 04 3d 67 e4 6a ba
       -0.005835961 0.014840813 0.032324724 -0.0008960426
0000b0 cc 08 ce bd f1 07 4c bd 2c 50 96 bd 45 4e 2e be
       -0.100602716 -0.04981226 -0.0733951 -0.17022045
0000c0 b2 1e be 3c ce 3c 4a bd 7e e6 c2 3d 54 99 56 3d
       0.023207996 -0.049374394 0.09516619 0.05239232
0000d0 fc 79 a9 3d 9f 55 2e 3e 9d d9 02 be e3 10 9b bd
       0.0827522 0.1702485 -0.12778325 -0.0757158
0000e0 04 f5 38 bc 20 c5 98 bd b5 3f 4e bd 69 bb 0d be
       -0.011288885 -0.074594736 -0.050353725 -0.13841023
0000f0 1a 40 f4 3c 8b 2b 25 bd 07 5b d9 3d fc be 34 3d
       0.029815722 -0.04032473 0.10613065 0.04412745
000100 22 9f 6f 3d ce 3c 01 3d d5 10 c8 39 69 8c 1f 3d
       0.05850137 0.03155213 0.00038159513 0.038952265
000110 33 0d c0 3d 99 64 1f bd 8e b3 29 bc 0c bd b3 bc
       0.093775176 -0.038914297 -0.010357751 -0.02194073
000120 52 f4 2c 3e c7 9c 40 3b 20 88 c1 bb 6d bc f5 3d
       0.16890076 0.0029390322 -0.00590612 0.1199883
000130 f7 5b bb 3d 5b 4b 05 3b 85 35 a8 bd 51 fb bb 3b
       0.091484 0.0020339105 -0.08213333 0.0057367464
000140 2d 7e aa 3c 8a 12 15 be ad 5f 77 3c 88 88 bb 3c
       0.020812118 -0.14557853 0.0150984945 0.022892252
000150 d2 6f 2b bc c3 14 c1 3b 40 7a 59 3d fe 23 4c 3d
       -0.010463672 0.0058923676 0.053095102 0.049839012
000160 8e 7e 83 3d bd c2 f2 3d b8 f2 8d 3d 4d 85 c0 3c
       0.06420623 0.1185355 0.069310606 0.023501063
000170 b8 02 56 3c 50 9f a4 bd 03 ae 76 bd 23 76 e2 bc
       0.013062172 -0.08038199 -0.060224544 -0.027644223
000180 70 3f 83 3d f4 da 61 3d a7 22 06 3e 06 d5 c8 3d
       0.06408584 0.05514045 0.13099156 0.09806256
000190 cc 38 76 3d 17 25 f8 3b 0b 33 80 bc 66 01 5c bd
       0.06011276 0.007572781 -0.01564934 -0.05371227
0001a0 7b 4f e2 bc e7 21 0d 3c c2 15 40 bd 32 ce a1 bd
       -0.02762579 0.00861404 -0.04689575 -0.07900657
0001b0 84 de 90 bc e0 34 18 bd 53 28 1e bb c7 d7 ba bd
       -0.017684229 -0.0371598 -0.0024132922 -0.091231875
0001c0 f6 2c ac bd e7 50 1b bb 81 1b ad 3a f5 b9 67 bd
       -0.08407013 -0.0023699345 0.0013207049 -0.056573827
0001d0 e7 e8 b1 3b b5 b0 a9 bc a0 ad 05 3d 8c c3 24 bd
       0.0054293755 -0.020714143 0.032636285 -0.04022555
0001e0 70 67 16 be 16 fc c3 bd 32 3a 1d be fc 75 d0 3d
       -0.14687896 -0.09569566 -0.15354231 0.10178754
0001f0 79 83 1b bc be ad b7 3d 62 d6 6f bd 2e 8e c0 bb
       -0.009491795 0.089686856 -0.05855406 -0.005876324
000200 e8 c4 58 3d 0e 7c b0 bd c6 c0 08 be e1 9e 36 be
       0.05292216 -0.086174116 -0.13354787 -0.17834045
000210 46 f6 07 3c c6 ff 23 bd 8a 6b 7e bd cb ac 89 bc
       0.008298462 -0.040038846 -0.062114276 -0.016806027
000220 ad 55 5c 3d 6c f5 1e bd 32 90 9c bd 5c 91 ba bd
       0.053792644 -0.03880827 -0.076446906 -0.09109756
000230 3f 46 83 bd bb 40 80 3d e7 bd 67 bd d1 b0 84 3c
       -0.06409883 0.06262346 -0.05657759 0.016197594
000240 5b 01 df bd 93 dd 56 3d a2 26 26 3e 8f 37 b8 3a
       -0.108889304 0.052457403 0.16225675 0.0014054644
000250 e3 b5 99 3d 1f b1 d2 3d 74 41 f4 3c 52 44 a9 bc
       0.07505395 0.102876894 0.029816367 -0.02066246
000260 07 43 ca 3c de 5e 91 bd 81 ad 49 3d ce bf dc 3d
       0.024690164 -0.070981726 0.04923773 0.10778771
000270 7e 73 fc bd ae 55 04 be ac 6b 29 3e b0 45 af bd
       -0.12326716 -0.12923309 0.1654498 -0.08558214
000280 fa 71 1b be fb 56 4f 3d 41 56 cc 3d 8e d1 4d bc
       -0.15180197 0.05062006 0.09977389 -0.012562169
000290 a9 7d e5 bc bf d1 b1 bd 96 3e d7 bc 15 bf ae 3d
       -0.028014021 -0.08682584 -0.02627496 0.0853254
0002a0 5b 07 23 be dc d8 99 3d 00 c3 5a 3d ba c1 14 bb
       -0.15920775 0.07512066 0.053408623 -0.0022698478
0002b0 a6 f8 29 3d 91 3c f7 bc db fd 9f bc ac 93 d7 3b
       0.041496895 -0.030180248 -0.019530227 0.006578883
0002c0 11 dd 75 bd 94 5b 96 bd 47 c9 ca 3d 82 4e 87 3d
       -0.06002528 -0.07341686 0.09901672 0.06606771
0002d0 ea 6e e7 3c 5b ed be 3d ec 35 d7 bb be 2d df bd
       0.02825113 0.09322616 -0.0065677073 -0.108973965
0002e0 88 b7 82 3d 6e 2f 38 3d 99 a0 28 be 09 24 f8 3c
       0.06382662 0.044967107 -0.16467513 0.03029062
0002f0 67 22 8b bd 11 ee a4 bd 3f ed 53 bd 16 2a 94 3a
       -0.06793671 -0.0805322 -0.051739927 0.0011304046
000300 12 5c b9 bd 58 f1 ec 3b f9 38 a0 3b 47 22 f6 3d
       -0.09050764 0.007230919 0.004889604 0.12018257
000310 bb 59 27 be d3 03 41 3d 22 84 b3 3b 71 b9 1d 3d
       -0.16342823 0.047122788 0.005478398 0.03850693
000320 22 3d eb 3c 90 f8 85 bd 9b 69 0e bd c7 14 ea bb
       0.028715674 -0.0654155 -0.034768682 -0.00714359
000330 a2 fd d1 b6 13 ac 90 3a 55 1c a5 bb 8c 9b 39 3b
       -6.258212e-06 0.001103761 -0.005038778 0.0028321473
000340 2b ba 6b 3d 6a 24 9f 3c e8 2c ab bc 46 6b 7c bd
       0.05755059 0.019426543 -0.020895436 -0.06162574
000350 b6 0f 0c 3d fa 5d c9 bb c7 aa b7 bb cd 10 be bd
       0.03419467 -0.006145236 -0.005605075 -0.09280548
000360 44 14 1b bd 66 10 c4 bc 2b 8b 7a 3d fc 4f 9e 3d
       -0.037861124 -0.0239336 0.061167877 0.077300996
000370 61 3b 9b bc f5 e0 c3 bc 0f 3c 44 3d 87 a5 79 bd
       -0.018949213 -0.023910979 0.04790884 -0.060948875
000380 af 89 2e bd 09 43 7c bb 17 12 6a bc a2 56 9b 3d
       -0.042611774 -0.0038492105 -0.0142865395 0.07584883
000390 b3 9a 23 3d bf ef 5e 3d b8 43 26 3b b5 f9 74 bc
       0.039942455 0.05442786 0.0025369953 -0.014952113
0003a0 37 f7 12 3c 69 e7 81 3d 4a f5 de 38 c4 a3 ca bd
       0.008970073 0.06342966 0.000106314736 -0.09894517
0003b0 72 8b bd 3d 07 c3 58 3d 12 4e 88 3d 77 d5 11 3e
       0.09255113 0.052920368 0.06655516 0.14241587
0003c0 75 61 01 bd 32 2e c0 3c 67 66 84 3d 04 22 5c 3d
       -0.031587083 0.023459528 0.06464844 0.053743377
0003d0 c9 4a 14 3d 35 7b 40 3d 56 b7 d8 ba 21 55 0c bd
       0.036204133 0.0469925 -0.001653413 -0.034260873
0003e0 4d 28 6a 3d 83 e0 70 bc ca 6a a2 3a 52 36 a6 bd
       0.05716734 -0.014701965 0.0012391445 -0.081158295
0003f0 8e c8 90 bd 93 0c 95 3c 32 22 56 3d 27 f4 f4 bd
       -0.07069503 0.018194472 0.052278705 -0.11960631

conv3.bias f4 [24]
000000 20 c7 9b bb 47 ee 0b bd 00 ec 9c 3d 7a 88 64 bc
       -0.004753962 -0.034162786 0.07662201 -0.013948554
000010 98 25 39 bd 5e f4 3f 3d 7a 42 83 3d 6c ad ba bc
       -0.045201868 0.046863906 0.06409164 -0.022787772
000020 17 6d 55 3d cc 73 a0 bd 7a 4b 8c bd 43 be 09 bb
       0.05210599 -0.078345865 -0.068503335 -0.0021017946
000030 b9 3b 27 3d 7d c4 74 bd 79 6a 0f bc 7b a0 34 bc
       0.04082844 -0.0597577 -0.008753412 -0.01102459
000040 b1 e7 80 3d 34 9b a4 3c 24 ea f8 3c e5 ae 8c bd
       0.06294192 0.020093538 0.030385084 -0.06869296
000050 34 44 a4 3d bc d9 2c bd e8 49 95 bd 40 4a 2c 3d
       0.08020821 -0.042199835 -0.07289487 0.042062998

bn3.weight f4 [24]
000000 0e 79 8e 3f 20 8a 6e 3f 27 e3 87 3f 15 ce 77 3f
       1.1130693 0.9317951 1.0616196 0.9679883
000010 05 2d 88 3f 5c 02 82 3f f7 ad 87 3f d6 24 7e 3f
       1.0638739 1.015697 1.0599965 0.9927496
000020 49 ef 5d 3f 1d b2 6b 3f f6 c0 84 3f b1 27 64 3f
       0.86693245 0.92068654 1.0371387 0.89123064
000030 4f 72 81 3f 66 29 89 3f 09 22 7c 3f e7 98 81 3f
       1.0113009 1.0715759 0.98489434 1.0124787
000040 de a5 85 3f 36 96 88 3f fa 1f 5d 3f 7d e3 72 3f
       1.0441244 1.0670841 0.8637692 0.9487837
000050 49 13 7e 3f 92 39 7f 3f e9 cd 7b 3f 92 99 85 3f
       0.99248177 0.9969722 0.9836107 1.0437491

bn3.bias f4 [24]
000000 49 6f 09 bc af 7b 5c be 0b 1f a2 bc d1 db 0a be
       -0.008388349 -0.21531557 -0.019790193 -0.13560416
000010 a3 e8 f4 bc fc 91 31 be 21 6e 46 bc 98 79 b4 bd
       -0.029896086 -0.17340845 -0.012111218 -0.08812255
000020 a2 e9 63 be 81 cb 71 be 28 9f 21 be e6 d1 95 be
       -0.22257093 -0.23612787 -0.1578337 -0.29261702
000030 f4 87 db bd ab 48 ba bc a0 e3 38 be 38 a9 6d 3d
       -0.107192904 -0.022739729 -0.18055582 0.058022708
000040 2e a6 4f bd 60 56 7c bc b3 98 23 be 86 0c 1b be
       -0.05069559 -0.015401453 -0.15976219 -0.15141496
000050 d7 a6 65 bc 1e 7b e3 bd 7b f4 08 be df 24 2b bd
       -0.0140168285 -0.11107467 -0.13374512 -0.04178321

bn3.running_mean f4 [24]
000000 48 bb cc be 10 2b 80 be c5 23 04 be 93 55 de be
       -0.39986634 -0.25032854 -0.1290427 -0.43424663
000010 d1 f7 70 bf 4e 1a 21 bf 86 09 17 bf d2 22 03 bf
       -0.9412814 -0.6293076 -0.58998907 -0.51225007
000020 ea 96 13 3e 6c b1 27 be ac 55 7c be 52 d6 99 bd
       0.14413038 -0.16376275 -0.24642056 -0.075115815
000030 36 08 01 bf 93 6c 6d bf fa df 16 bf e9 dd 83 bf
       -0.50403154 -0.92743796 -0.5893551 -1.0302097
000040 01 95 13 bf 7a 0c 27 be 39 f0 7f be 3d a2 27 bf
       -0.57649237 -0.16313353 -0.24993981 -0.6548193
000050 e5 a5 6f bf 41 01 96 be 6d 51 45 be 76 d7 6d bd
       -0.9361251 -0.29297832 -0.19269343 -0.058066808

bn3.running_var f4 [24]
000000 b6 ad aa 3f 8d 1b 05 3f 5b 12 46 3f e9 26 36 3f
       1.3334262 0.51995164 0.7737176 0.7115312
000010 66 89 73 3f d1 1a 6f 3f 79 2b b4 3f e2 af 82 3f
       0.9513153 0.93400294 1.4075767 1.0209925
000020 e4 c0 f1 3e 30 6b 15 3f 41 50 b5 3f 83 0c 19 3f
       0.47217476 0.5836668 1.4165117 0.59784716
000030 84 b0 a5 3f 97 ec 0d 3f d2 a5 a0 3f 77 5d a0 3f
       1.2944493 0.5543913 1.2550604 1.2528523
000040 c2 3e 90 3f f1 31 a0 3f cf 6b ee 3e 0c b8 8f 3f
       1.1269152 1.2515241 0.46566626 1.1228042
000050 02 cc 9b 3f a8 7e 8a 3f d9 2c 36 3f 41 7c 7f 3f
       1.2171633 1.0819902 0.7116218 0.9979897

conv4.weight f4 [32, 24, 3, 3]
000000 48 86 e9 3c cc 47 5b bd 64 1a 91 bd 32 73 86 3c
       0.028506413 -0.053535268 -0.07085112 0.016412351
000010 9d 6a 8b bd 5c 8e 59 3b 6f 94 a9 3c 46 50 21 bd
       -0.06807444 0.0033196425 0.020700661 -0.039383195
000020 03 b8 ff 3c bd e0 90 3d 50 8a 8e 3c e1 1d e5 bc
       0.031215673 0.070741154 0.017399937 -0.027968349
000030 68 2f 06 3c ac c3 44 3c 4d 1d 3a bc e2 ec 23 bd
       0.0081900135 0.012009542 -0.011359525 -0.04002083
000040 00 a2 d0 bd 62 c2 59 bc 5f f0 32 3b 8d 3d a9 bb
       -0.10187149 -0.013290973 0.0027303917 -0.005164808
000050 6e c5 9f 3c c4 39 48 bd 18 cf c7 bc 85 8c 7c bb
       0.019503321 -0.048883215 -0.024390742 -0.0038535905
000060 34 8c 2c 3d 95 ec bc 3c cc 15 85 3c b6 23 15 3d
       0.042125896 0.02306203 0.016245745 0.03641101
000070 15 0f e6 3d 64 d6 07 3d cf 84 e3 3c 70 ed 5d bd
       0.112333454 0.033163443 0.027773289 -0.054181516
000080 ad 62 a8 bc 0d 31 95 bd fb c3 05 bb ec f1 c2 3d
       -0.020554865 -0.07284746 -0.0020411003 0.09518799
000090 05 7a f0 bd e8 f4 2f bd 45 5b 87 ba 63 2c a3 bc
       -0.117420234 -0.04295817 -0.0010326883 -0.019918626
0000a0 e8 4c 45 3b a3 3c 09 3d 79 3d 59 bd 1f f4 be 3c
       0.0030105654 0.033505093 -0.05303714 0.023309765
0000b0 4b 27 d4 3d 75 5d 0e 3c 95 b6 30 3d 81 a4 2e 3d
       0.10359057 0.008689274 0.043142874 0.042637352
0000c0 bf c6 5a 3d a7 c9 53 bd 96 20 9e bd 49 9b 32 bb
       0.053412195 -0.051705983 -0.07721059 -0.0027253202
0000d0 0a e2 63 bc 24 8d eb 3c 3f 1e fa bd 31 1e b1 3c
       -0.013908872 0.028753825 -0.122128 0.021620842
0000e0 c2 dc 0e bc 88 ea 5b bd 42 6d 09 3e cb ff 55 3d
       -0.008719625 -0.053690463 0.13420585 0.052245896
0000f0 49 e3 fe 3c 65 8f 65 3c e9 a8 99 3d ce 99 db bc
       0.031114237 0.014011239 0.0750292 -0.026806738
000100 37 1d 4d 3d b4 7a 87 3d ec 2b 32 bd 2c 7f 1f 3d
       0.05007669 0.06615201 -0.04349892 0.03893964
000110 2e 0f 27 3d 46 f9 7e bd 99 ff a9 3c 7f 49 b8 3c
       0.04078596 -0.062249444 0.020751761 0.022495983
000120 eb f3 52 3d b9 88 8e 3d 64 b0 15 bc 19 d8 a8 3c
       0.05150215 0.069596715 -0.009136293 0.020610856
000130 fc bc 0b 3d 74 8c 7f bd 8d 31 8d bd f3 8f da bb
       0.034115776 -0.062389806 -0.06894217 -0.006669992
000140 14 e9 9d 3d 7e 41 d7 3c e9 a9 f0 3c 14 3c 15 3d
       0.07710472 0.026276346 0.029377894 0.036434248
000150 70 82 a9 3c 9c da 8a bd e6 d7 cb bd 44 0f c9 bd
       0.02069208 -0.06779978 -0.09953289 -0.09817365
000160 72 6b c7 bd 77 18 45 bd 04 8b 8d bd 80 41 0e be
       -0.097372904 -0.048119035 -0.06911281 -0.13892174
000170 99 d5 11 3b 30 4f 20 bd fb 54 1f 3d c8 82 50 bc
       0.0022252558 -0.03913802 0.038899403 -0.012726493
000180 ec b1 1a be 55 90 7b bd ce 2e 09 bd 86 7e 0e 3e
       -0.15106934 -0.061416943 -0.033491902 0.13915452
000190 29 0f 3d 3d 53 14 df bc f8 70 b3 3d 2b 42 d7 bc
       0.046157036 -0.027231371 0.087617815 -0.026276669
0001a0 3c 56 1c be 31 f9 b8 bb 26 12 a2 bd 9f 94 31 bc
       -0.15267271 -0.0056449403 -0.07913618 -0.010838657
0001b0 3a f5 b4 bd 19 fc 3e bd 5e 44 a5 bd 35 cd 10 bd
       -0.08835836 -0.046627138 -0.08069681 -0.03535195
0001c0 2c d2 47 3d 72 30 0c 3d ed be ae 3b 66 70 9f 3d
       0.04878442 0.03422589 0.0053328187 0.0778511
0001d0 bf 6f aa bc 5d 77 dc bd e3 58 42 3c 33 6e 04 3d
       -0.020805238 -0.10764954 0.011862013 0.032331657
0001e0 ba 4f c4 bc 7c d7 00 bd dd dc bc bc f9 14 1a bc
       -0.023963798 -0.031455502 -0.023054535 -0.009404414
0001f0 3d 0d ed 3c d1 28 37 bb 9f dd 74 3c d4 de 89 3b
       0.028936977 -0.0027947912 0.014945417 0.0042074714
000200 38 0f 8d 3c 76 d8 9f bd 0c f9 58 3d d2 8d 54 3c
       0.01721917 -0.078049585 0.052971885 0.012973266
000210 9f 12 3e be cf 3e d1 bd cd 22 7e 3c f3 5b 01 be
       -0.18561791 -0.10217058 0.015511227 -0.12632732
000220 39 db 16 3d 7d 65 67 bd 81 77 19 be 1b 22 8b 3d
       0.03683016 -0.05649327 -0.14986993 0.067936145
000230 73 32 86 3d c8 a7 9b bd 9f 86 4e 3d eb e0 ae 3b
       0.06552591 -0.07600361 0.050421353 0.005336871
000240 54 e0 c0 bd 14 65 49 bd 35 2b 9d bd 03 39 99 bd
       -0.09417787 -0.04916866 -0.07674257 -0.07481577
000250 fa 1e 5d bc ea c1 a5 bd cb 2b 4c 3c 54 08 21 3d
       -0.013496155 -0.08093627 0.012461613 0.039314583
000260 c5 c3 2c bd 1e 9b 90 3d 0c 60 7b 3d ef 80 ab bd
       -0.042178888 0.07060836 0.061370894 -0.083742015
000270 cb 4e ed bc b5 af 8f ba 27 3d 0d bd 1e ec 1c be
       -0.028968235 -0.0010962399 -0.034482148 -0.15324447
000280 b9 6c db bc b8 59 d7 3c e8 ed fb bb 6a 79 2c 3c
       -0.026785241 0.026287898 -0.0076882727 0.010526994
000290 92 4d 02 bd b3 8b 3f bc 9c 3b 30 3d f2 dd 85 3d
       -0.031812258 -0.011691022 0.043025598 0.06536473
0002a0 02 c7 7a bd 44 16 f5 bd 85 25 df 3b b8 79 78 3d
       -0.061224945 -0.119671375 0.0068098926 0.060662955
0002b0 1c fe 67 3c 30 dc 51 bc ca a8 a8 bd d3 62 93 bd
       0.0141597055 -0.012808844 -0.08235319 -0.071965836
0002c0 f5 66 1a bd 28 68 04 be 2c 3a f3 3b 7f 70 80 3d
       -0.037695844 -0.12930357 0.007422706 0.06271457
0002d0 ae 28 d6 bc da db 84 bb 32 e6 48 bc cc 22 e0 bd
       -0.026142444 -0.0040545287 -0.012261914 -0.10944137
0002e0 4b f8 2c be e4 3f a9 3b 2d 4c 04 be 72 6b 5a b9
       -0.16891591 0.005165087 -0.12919684 -0.00020830127
0002f0 5d 67 cd 3c 42 da 2a bd d8 bd e8 3b 60 ce 88 3d
       0.025073702 -0.041712053 0.0071027093 0.06679988
000300 44 15 54 3d 7b 11 cb bc fc 8c 59 3d 1e 5a 3b b9
       0.051778093 -0.024788609 0.05311297 -0.00017867281
000310 04 78 10 3d f4 63 b3 bd d7 60 1e bd 9d ec ed bc
       0.035270706 -0.08759299 -0.038666572 -0.02904349
000320 f9 69 94 3d d8 60 0c be f5 0a 10 be 75 2d b2 bd
       0.07246775 -0.13708818 -0.1406668 -0.087000765
000330 c6 2d ba bd 10 22 ad bc a2 fb 09 3d ab 96 89 3d
       -0.09090762 -0.021134406 0.03368724 0.06718191
000340 2d 3a 66 bd 5c c4 59 bd 29 43 da bd 80 2f 75 bd
       -0.056207824 -0.05316578 -0.10657341 -0.059859753
000350 9e b9 53 3c 0d 5c 79 bd 3c 66 a9 3c 15 c7 94 3b
       0.012922673 -0.060878802 0.020678632 0.004540334
000360 d0 91 c0 bd 37 38 c1 3c 35 b4 87 bc b0 14 d3 3c
       -0.094028115 0.023586376 -0.016565422 0.0257667
000370 62 f3 62 3d ea b7 2c bd 5e 32 c6 3d a2 4e 8d 3d
       0.05540789 -0.04216758 0.096775755 0.06899764
000380 a7 55 27 3c 11 c2 1a 3d ea 3c 23 3d d3 b9 79 3d
       0.010213292 0.037782732 0.039853014 0.06096823
000390 71 55 73 3d 61 f9 0d 3d 5b 73 28 bd b8 b0 c5 3d
       0.059407655 0.034661654 -0.041125637 0.09652847
0003a0 40 5b d2 bc 7a 11 18 be fc 0f 0d bc d6 e0 ef bc
       -0.025678277 -0.14850417 -0.008609768 -0.029282015
0003b0 c4 29 b6 3d 97 71 5f 3c 26 63 e1 3c cb 74 9b 3c
       0.08894685 0.013637922 0.027513098 0.01897659
0003c0 18 1a 8f 3c 66 6f 0f bd a1 a2 e6 bd 44 9d 8a bd
       0.017468497 -0.035018347 -0.11261488 -0.06768277
0003d0 6d 97 0b be b3 f1 15 bc e8 39 0f 3d 5e 85 d0 3c
       -0.13631983 -0.009151864 0.034967333 0.02545422
0003e0 ca c2 37 3d 52 30 92 bb 26 79 8f 3c 1b 86 94 3d
       0.0448635 -0.0044613266 0.017513823 0.07252141
0003f0 12 a0 7e 3c 37 17 15 bc 1d 28 2a 3d 2c 75 60 bd
       0.015541093 -0.009099773 0.04154216 -0.054799244

conv4.bias f4 [32]
000000 76 8c b7 3c 4b 77 8d 3c 4f f4 05 bc 74 19 76 bd
       0.022405844 0.017268797 -0.0081759235 -0.060082868
000010 d1 79 8d bd a5 12 11 bd 8c b8 c0 3c 6f 87 44 3d
       -0.06908 -0.03541817 0.023525499 0.047980722
000020 34 11 20 bc 44 80 2a 3d 7f b5 91 bc 45 75 d1 bc
       -0.009769727 0.04162623 -0.01778674 -0.025568614
000030 c2 94 06 3d 39 6c 2b bd d0 8f 1c 3d 07 6c c7 bc
       0.03285671 -0.041851256 0.038223088 -0.024343504
000040 02 1e 52 3d 94 3b e3 ba 31 94 86 bd bf 52 36 3d
       0.05129815 -0.0017336481 -0.06571234 0.044512507
000050 0a 1e 79 3d 87 27 7b 3d 8a dc 43 bd a1 52 79 bc
       0.060819663 0.061316993 -0.047817744 -0.015217454
000060 5b 00 fa 3c 4a 80 82 bd a8 56 2f 3c 94 d6 10 bd
       0.030517748 -0.063721254 0.010701813 -0.035360888
000070 d6 34 89 3c 7e 6d 83 3d 02 2c 68 bd 4f 4a 6e bd
       0.016748827 0.06417368 -0.056682594 -0.058176335

bn4.weight f4 [32]
000000 bc 32 7b 3f 61 0b 70 3f d2 40 79 3f 1d 62 7a 3f
       0.9812429 0.9376736 0.9736453 0.9780596
000010 a7 d9 71 3f 7d 46 6d 3f 42 9e 76 3f 80 67 82 3f
       0.94472736 0.9268568 0.9633523 1.0187836
000020 4d 16 7a 3f 5b 02 6d 3f b8 4c 77 3f d7 0c 80 3f
       0.9769028 0.9258172 0.9660144 1.0003918
000030 c6 58 91 3f 76 e0 6a 3f c7 43 8a 3f c7 67 75 3f
       1.1355217 0.9174875 1.0801934 0.95861477
000040 12 20 7d 3f b4 b1 89 3f f7 9d 66 3f eb f5 85 3f
       0.9887706 1.0757356 0.90084785 1.0465673
000050 5e 34 69 3f f6 8a 85 3f b7 f4 80 3f 81 59 7a 3f
       0.9109553 1.0433033 1.0074681 0.9779282
000060 b8 37 73 3f 7a 61 87 3f 22 fd 76 3f 1c 77 7d 3f
       0.95006895 1.0576622 0.9648 0.9900987
000070 2b ae 81 3f a0 5e 7c 3f f7 8b 82 3f 36 02 81 3f
       1.0131277 0.98581886 1.0198964 1.00788

bn4.bias f4 [32]
000000 99 93 5c be e3 77 db be c0 48 30 be 17 b0 49 be
       -0.21540679 -0.42864904 -0.17215252 -0.19696079
000010 47 1d 88 be a8 eb ff bd fd 6e 5d be 1f 11 51 be
       -0.26584837 -0.1249612 -0.2162437 -0.20416687
000020 fa cb 28 be e8 a0 86 be e9 e5 89 be 9c aa 15 be
       -0.16484061 -0.26294637 -0.2693322 -0.14615864
000030 5b 0c 3b be 4e df 3f be 1d c0 08 be 07 7b 2b be
       -0.18266432 -0.18737528 -0.13354535 -0.1674615
000040 73 e7 95 be 12 d9 c0 bd 36 82 91 be 6f 19 78 be
       -0.29278144 -0.09416403 -0.28419656 -0.24228452
000050 28 92 7a be 81 bc f0 bd 8f 2b 5b be 0a 9a 25 be
       -0.24469817 -0.11754704 -0.21403335 -0.16172042
000060 e4 9a 57 be 0c 47 74 be a3 77 24 be 2c a0 47 be
       -0.2105518 -0.23855227 -0.16061263 -0.19494694
000070 51 bb 31 be 51 23 a2 be 42 19 01 be 68 9b 9e be
       -0.17356612 -0.3166757 -0.12607291 -0.3097794

bn4.running_mean f4 [32]
000000 31 4b 4b bf 5b ce 96 be 34 33 49 bf 61 64 1b bf
       -0.7941161 -0.29454312 -0.78593755 -0.6070004
000010 c1 73 3e bd 82 db 91 be b4 4a a9 be 80 ed 5c 3d
       -0.04649711 -0.28487784 -0.33064806 0.053937435
000020 7e b7 26 bf 00 ca c7 be ba c2 7b be bc 43 6b bf
       -0.65123737 -0.390213 -0.24586001 -0.9190023
000030 b6 2c 29 bf 67 60 05 3d 3d e2 46 bf 83 cd 27 bf
       -0.6608385 0.03256264 -0.7768896 -0.6554796
000040 cb 44 b7 3d 19 3b 86 bf af 1d ff be b6 f8 36 bf
       0.08948668 -1.0486785 -0.49827334 -0.7147325
000050 a9 1e b2 3e 5a fe 18 bf f6 31 06 bf 4c ce 5f be
       0.34789017 -0.5976311 -0.52419984 -0.2185604
000060 4f 2e 72 bc 0a ee 5f bf db 48 5a be fd a8 a5 be
       -0.014781549 -0.87472594 -0.21316855 -0.3235549
000070 aa 5f b5 be 00 da 08 3d 9c 05 8f 3d 62 46 34 bf
       -0.35424548 0.033411026 0.06983492 -0.70419896

bn4.running_var f4 [32]
000000 c6 95 26 3f af 44 da 3e 44 cd f4 3e d6 4a 07 3f
       0.65072286 0.42630526 0.47812855 0.52848566
000010 53 fa 40 3f b9 2a 1c 3f 5a 1b c0 3e 12 70 4c 3f
       0.75381964 0.6100269 0.37520868 0.79858506
000020 60 64 0b 3f 7e 87 27 3f 75 37 da 3e 89 a3 5a 3f
       0.54450035 0.6544112 0.42620435 0.85405785
000030 d9 7a 39 3f 29 83 1a 3f b5 bf 0d 3f 03 e2 1f 3f
       0.72453076 0.60356385 0.55370647 0.6245424
000040 3b 5b f2 3e ed 28 b9 3f f2 2c cb 3e f4 61 14 3f
       0.47335228 1.4465615 0.39682728 0.57961965
000050 86 93 06 3f b2 7d 56 3f 4c 60 b5 3e b9 76 1c 3f
       0.5256885 0.83785546 0.3542503 0.61118656
000060 bb e0 34 3f 5c a9 d2 3e 6f 4a 27 3f 55 3e 2a 3f
       0.7065541 0.41144836 0.6534795 0.6650136
000070 ef de 19 3f 74 d9 38 3f 21 c3 58 3f 24 81 28 3f
       0.60105795 0.7220681 0.84672743 0.6582205

conv5.weight f4 [48, 32, 3, 3]
000000 ff 74 79 bd d6 65 9d 3d db b2 96 bc 14 bb 14 be
       -0.06090259 0.07685439 -0.018395832 -0.1452449
000010 e4 1f 47 bd 76 3f 9f 3c 94 51 c2 bd 78 4b 33 3d
       -0.048614398 0.01943944 -0.09488216 0.043773144
000020 e4 18 63 3d f5 2b a2 bc df 45 e3 ba e4 3e 06 bc
       0.05544366 -0.019796351 -0.0017339549 -0.008193705
000030 d3 23 cf bc 2b 31 3c bd b2 c7 2a 3d 6a 9d 11 3d
       -0.025285637 -0.045945328 0.04169435 0.035550512
000040 e9 88 a1 3c 26 c2 9b 3b 10 6a a1 3d 78 7c 84 3d
       0.019718604 0.004753369 0.07881558 0.06469053
000050 9f 47 a9 bd 57 16 50 bd 4b 71 b3 bd 67 66 0c 3d
       -0.08265614 -0.050802555 -0.08761843 0.034277346
000060 f1 74 4c bd 62 44 70 bc 92 ec 89 3c 63 28 9f 3c
       -0.04991621 -0.014664741 0.016836438 0.019428438
000070 4e 6d f4 bb 19 70 f8 3d 48 f1 d6 bd c6 16 45 bd
       -0.007459319 0.12130756 -0.104952395 -0.04811742
000080 2b cf cc bd c5 d5 f6 bc 0d c2 d4 bd 60 4d 80 bd
       -0.10000452 -0.03013123 -0.10388575 -0.06264758
000090 51 a2 ee 3c a0 f1 06 bd e7 9c 3f bd 4d a1 16 3d
       0.029130133 -0.032945275 -0.046780493 0.036774922
0000a0 04 dc 2f bd 76 fa 0e bd dc 50 80 bc 6f 28 12 bd
       -0.042934433 -0.034906827 -0.015663557 -0.03568309
0000b0 1a 81 a3 3d f8 5e c6 3d 47 b2 81 bc 98 a7 6f 3d
       0.079836085 0.096860826 -0.01583208 0.05850944
0000c0 88 d6 40 3d 8a 50 3d bb 79 f1 fd bc a4 f5 5e bc
       0.047079593 -0.0028887116 -0.030998932 -0.01360837
0000d0 1a f0 d9 bc e7 6b 74 bd 1e 1d a1 bc 59 a7 83 bc
       -0.026603747 -0.059673216 -0.019667204 -0.016071009
0000e0 4f e3 87 3d d7 79 b2 3c 14 bf 8d bd f8 e7 1f 3c
       0.066351525 0.021786613 -0.06921211 0.0097598955
0000f0 01 3b 34 3d 0e c2 8b bc 1c b2 87 bd 58 aa 39 bc
       0.044001583 -0.017060306 -0.066257685 -0.011332117
000100 6d ab 2b bd ef 4d c8 bd b3 f6 92 bd 4b 37 9d bc
       -0.04191153 -0.0978049 -0.071759604 -0.019191405
000110 db 38 bb bd b5 6f 31 3c 8d b0 1d bb a3 da 4e bd
       -0.09141704 0.010829856 -0.0024061531 -0.050501477
000120 3d 3a 8b 3d 8c 00 59 bc d9 73 87 bd 9d 73 15 3d
       0.067982174 -0.013244759 -0.06613893 0.03648721
000130 de 00 b4 3c 96 2f c1 3b be 23 fe b8 81 cb bc 3c
       0.02197307 0.0058955653 -0.00012118321 0.023046257
000140 e2 26 4e bd c3 31 26 bd a7 a0 5c bc 32 0f 0e 3b
       -0.05033005 -0.0405748 -0.013466037 0.0021676538
000150 27 61 3b 3c cb 76 d5 3a 08 6d 2e bd e0 aa e8 3d
       0.011436737 0.0016286013 -0.04258445 0.11360717
000160 11 d8 9c 3c 3e c1 ab bd b6 fd 5b 3d 18 d3 2a bc
       0.019145997 -0.083864674 0.053708754 -0.010426305
000170 5b 0a b5 bd 6e 28 13 3d 31 d8 d8 3b 92 f6 06 bd
       -0.08839866 0.03592723 0.006617569 -0.03294999
000180 45 ed 8f 3c 42 f7 39 3d c2 8a c9 3c a9 d0 2d bc
       0.017569194 0.04540182 0.024602298 -0.0106088305
000190 f5 e7 44 3b b0 fe ba bd c5 0c 6e bd 3f d4 1c bd
       0.0030045484 -0.09130609 -0.058117647 -0.03828835
0001a0 78 d8 5f 3d ca d6 38 3d 78 3a 61 3d e6 58 a9 3d
       0.0546498 0.045126714 0.0549874 0.08268909
0001b0 27 6e 25 be 22 6f 25 be 09 f6 f6 bc 91 e1 16 be
       -0.16155301 -0.16155675 -0.030146616 -0.14734484
0001c0 53 df e5 bd 24 84 ef bd dc 7b 00 bd 90 32 6f bd
       -0.11224236 -0.11695126 -0.03136812 -0.05839783
0001d0 73 a7 fb 3b 56 ae cb b9 fb 9b ab 3d d5 1c 6a bd
       0.0076798736 -0.00038849068 0.0837936 -0.057156403
0001e0 7a 03 d6 3c 1a 45 43 3d df a6 8a bc 80 02 36 bc
       0.026124705 0.047673322 -0.016925273 -0.0111089945
0001f0 6c 7e f9 3b 68 c2 7d bd 94 02 f2 bd b8 49 f6 bd
       0.0076139476 -0.06195298 -0.11816898 -0.120257795
000200 6b e9 42 be 76 d9 60 bd ad 3e b1 bc a9 b0 25 3d
       -0.19034354 -0.054894887 -0.021636331 0.04045168
000210 c8 53 b1 3c de 41 82 3d 5d b3 8b 3c 78 0b 10 be
       0.021646395 0.063602194 0.0170533 -0.14066875
000220 ad 17 5b bd 60 e3 34 3d 7e e2 ad bd 99 52 5b bd
       -0.053489376 0.044162154 -0.084904656 -0.05354557
000230 8c 9a 55 3d c3 f1 d8 bb 95 13 cc bb 73 0c 12 ba
       0.05214934 -0.006620617 -0.0062279203 -0.0005571313
000240 e7 18 8a bd c4 87 bc bd 06 52 56 3c 55 8c 6a 3b
       -0.06743031 -0.09205583 0.013081079 0.003578921
000250 0f ec 32 bd 7a b2 3d bc cc 1d 28 bd a5 c8 27 bd
       -0.043682154 -0.011578197 -0.04104404 -0.040962834
000260 3e 95 40 bc 8d 98 98 bd 8b e4 2b 3d b2 61 ea 3c
       -0.011754332 -0.07450972 0.041966002 0.028611038
000270 3a ad ce 3b 5d 1f c0 3c bd 00 43 bd 36 26 60 3d
       0.0063072713 0.023452455 -0.047608126 0.05472394
000280 7b 9b 95 3c f3 9e 59 bd 6b 12 fc 3c fc e8 45 bd
       0.018262615 -0.0531301 0.030770501 -0.048317894
000290 d2 7b a8 bd 08 4b b9 3d e5 7c 37 3d 55 2c e4 3b
       -0.08226742 0.09047514 0.044796843 0.0069632926
0002a0 cb b6 95 ba 06 34 1b 3d 9c ec 0e bd 41 df be 3d
       -0.0011422274 0.03789141 -0.034893617 0.09319926
0002b0 4f 7c ad bb f5 fc fa b9 5c 15 fe bb 7e 0a d6 bc
       -0.0052943598 -0.00047872183 -0.007754011 -0.02612805
0002c0 00 04 00 bd fb 64 2a bd be 33 84 bd 09 66 49 bd
       -0.031253815 -0.04160021 -0.064551815 -0.049169574
0002d0 93 37 fa bb c4 56 a1 3c 70 80 72 3b 7f f2 a8 3c
       -0.0076360195 0.019694693 0.0037002824 0.020623444
0002e0 c6 96 a4 3b 26 2f 65 bd 13 65 9a 3d 82 1c d5 bc
       0.0050228564 -0.055953167 0.075388096 -0.02601457
0002f0 29 a2 55 bd 9a d8 65 bb 84 35 97 39 60 c9 85 3c
       -0.0521566 -0.0035071732 0.00028840837 0.016331375
000300 8e dc d0 bd fa fb b2 3a 39 11 93 3d 55 c3 32 3d
       -0.101983175 0.0013655417 0.07181019 0.043643314
000310 a9 4c 81 3d 7e a1 20 ba b1 13 e8 bc 39 4c 38 bc
       0.0631345 -0.000612758 -0.028329702 -0.011248642
000320 dd 45 51 3c 4e 98 95 ba 72 b4 47 3d 6d 0b d9 3d
       0.012773004 -0.0011413188 0.04875607 0.105978824
000330 ed 73 f9 3c 91 31 13 3c 50 41 33 bd 58 83 5b 3d
       0.030450786 0.0089839855 -0.04376346 0.053592056
000340 b0 f4 ce ba cd 19 28 3c 1a 4e 53 bc df b3 4c bd
       -0.0015789475 0.010260058 -0.012897039 -0.049976226
000350 60 5d d6 3c 7c 08 0e bd cf d3 55 bd ba ba ba 3c
       0.026167572 -0.03467606 -0.05220395 0.022794116
000360 9a 2c 48 3d 49 f9 cf 3c 1a 6d 99 3d 54 73 91 bd
       0.04887066 0.025387423 0.074915126 -0.07102075
000370 24 ed 29 bd 52 6b 2c be 5e 16 dd bc d6 af 1f bd
       -0.04148592 -0.16837814 -0.026988205 -0.03898605
000380 c4 6c 0e be 31 fe 2d bd e6 9e f4 3b a2 3d b8 bd
       -0.13908678 -0.042478744 0.007465231 -0.089961305
000390 39 8e 2e bc 25 53 74 3d 5a fc bd bd 50 51 9c 3c
       -0.010654026 0.059649605 -0.09276648 0.019081742
0003a0 30 c1 da 3c 79 bd 42 bd d4 5c 07 3d f3 49 6d 3d
       0.026703447 -0.047543976 0.033047512 0.05793185
0003b0 18 0f d9 3d fd ff 18 3c e4 59 3b bd 00 2f 98 bd
       0.10598582 0.009338376 -0.045740023 -0.074308395
0003c0 55 f7 02 bd 84 8d 9c bd 36 1c c3 bd 62 99 6d 3d
       -0.031974155 -0.076441795 -0.09526865 0.058007605
0003d0 c5 0e 3d 3d cb 8a f7 bd f4 bb c3 3d 16 b0 7e bd
       0.046156663 -0.120870195 0.095573336 -0.062179647
0003e0 bd f7 e4 bd 06 7a c9 3c a9 84 eb 3b 66 f9 b3 bd
       -0.11180065 0.024594318 0.007187445 -0.08787803
0003f0 08 11 37 bd 7b c5 bc bd f8 36 06 bc c6 c9 4a bb
       -0.044693977 -0.09217354 -0.0081918165 -0.003094302

conv5.bias f4 [48]
000000 d4 3d 58 bd 9f 09 af bc a7 b1 3b 3c cb 61 37 bd
       -0.05279334 -0.021366892 0.01145593 -0.044770997
000010 de ac f3 bc 9f 22 23 3d 04 e7 ad bc c2 0b 18 3b
       -0.029745515 0.03982794 -0.02122832 0.0023200368
000020 d1 2c 1f bc 1e dd 61 3d a4 ac 0b bd ae 63 12 bd
       -0.009715275 0.055142514 -0.03410019 -0.035739593
000030 36 1c 12 3c d7 3c 0d bd 14 d3 2b bc b4 22 4e bd
       0.008917859 -0.03448185 -0.010487337 -0.050326064
000040 f9 47 5e bd 8d 02 44 3d c1 b2 1b bd e5 14 33 bd
       -0.054267857 0.047853995 -0.03801227 -0.0437211
000050 af be 70 3b b9 d7 43 bd 2b fd 32 bd 66 71 fc 3c
       0.003673475 -0.04781315 -0.04369847 0.030815791
000060 38 1b 43 bd 10 96 11 3d f5 a6 25 bc 8c b8 bd 3a
       -0.04763338 0.0355435 -0.010110606 0.0014474555
000070 dc c4 5d 3d 6a c0 41 3d a3 b4 23 bd 18 7f 6a bc
       0.054142818 0.04730264 -0.03996719 -0.014312528
000080 0d 15 49 3d c4 55 97 3c 4d a1 3e 3c 13 d5 22 bd
       0.04909234 0.018473513 0.011635137 -0.039753985
000090 0d 5a c9 bc 85 5a e0 3b 22 9a 01 3c a3 99 f1 3c
       -0.024579072 0.0068467283 0.007910283 0.029492205
0000a0 ec 1b f3 bb ec 67 13 3d 18 33 cc 3c e0 23 36 3d
       -0.0074191 0.03598778 0.024926707 0.044467807
0000b0 0a 49 43 3d 1f b8 46 3d 8b a1 65 3c c9 04 67 bc
       0.047677077 0.048515435 0.014015566 -0.014100262

bn5.weight f4 [48]
000000 25 5a 81 3f 00 5d 80 3f 90 eb 7e 3f f4 7b 78 3f
       1.0105635 1.0028381 0.9957819 0.9706414
000010 be 7f 85 3f 95 2d 80 3f 6e 29 84 3f 62 88 85 3f
       1.0429609 1.001391 1.0325143 1.0432246
000020 4a c0 7f 3f 0f ea 85 3f 65 25 74 3f 7a cc 8f 3f
       0.99902785 1.0462054 0.9536956 1.1234276
000030 98 d0 61 3f 01 11 8c 3f e1 62 62 3f 48 f7 6d 3f
       0.88208914 1.0942689 0.8843213 0.92955446
000040 62 b7 62 3f b1 31 7d 3f ba 39 86 3f 13 30 81 3f
       0.8856107 0.9890395 1.0486367 1.0092796
000050 96 97 81 3f b5 86 84 3f 2a 22 82 3f d6 8f 85 3f
       1.0124385 1.0353609 1.0166676 1.043452
000060 78 d8 8a 3f 95 a5 79 3f 93 64 84 3f 7a 94 85 3f
       1.0847311 0.97518283 1.0343193 1.0435936
000070 ed 3c 80 3f 51 ae 85 3f 17 a8 86 3f 91 db 6a 3f
       1.0018593 1.0443822 1.0520047 0.9174128
000080 24 fa 6f 3f de 23 7b 3f da dc 87 3f 7a 39 6e 3f
       0.9374106 0.98101604 1.0614274 0.9305645
000090 fa 79 71 3f b3 0f 65 3f c8 3d 85 3f 50 e4 77 3f
       0.94326746 0.8947708 1.0409479 0.9683275
0000a0 7d 67 81 3f 4f 36 7d 3f 00 51 7a 3f b1 ac 79 3f
       1.0109707 0.98910993 0.97779846 0.9752913
0000b0 79 54 6f 3f 5c 63 7e 3f fc c1 70 3f e1 f5 6d 3f
       0.9348827 0.9937036 0.94045997 0.92953306

bn5.bias f4 [48]
000000 1f 7a 2d be 2a cd bb bb d5 46 7a be e6 3c 0e be
       -0.16941117 -0.0057312446 -0.24441083 -0.13890418
000010 cc e8 61 be 57 5c 27 be 69 96 04 be 6e eb 1d be
       -0.22061461 -0.16343819 -0.12948002 -0.1542184
000020 42 d9 17 be 51 78 03 be 11 bb df bd d7 27 3f be
       -0.14828971 -0.12838866 -0.10924352 -0.18667541
000030 7f 3e 16 be 79 01 0e be 5c 20 87 be 31 cf 33 be
       -0.14672278 -0.1386775 -0.26391876 -0.17559506
000040 ae 8d 22 be 9a a9 4b be 80 c1 f8 bd 43 d7 43 be
       -0.15874359 -0.19888917 -0.12146282 -0.19125085
000050 62 b2 0b be 6c a3 ef bd 19 e5 f1 bd 5c 47 f5 bd
       -0.13642266 -0.11701092 -0.11811275 -0.11976501
000060 d2 30 0a be ab d1 50 be 06 58 90 bd ac 30 17 be
       -0.13495186 -0.20392482 -0.07048039 -0.1476466
000070 cf 16 1b be 70 2d d7 bd 48 da 83 bd 8b 24 e9 bd
       -0.1514542 -0.105067134 -0.06438118 -0.11383923
000080 56 c7 00 be 65 ce 4d be 3f fd 5a be c6 31 5b be
       -0.1257604 -0.20098265 -0.21385668 -0.21405706
000090 1b 43 c3 bd ef 12 e2 bd 93 41 e3 bd 80 78 14 be
       -0.09534284 -0.110387675 -0.11096492 -0.14499092
0000a0 66 8c 81 bd da 3f 2c be bb a5 0e be c6 9b 63 bd
       -0.06325607 -0.16821232 -0.13930409 -0.05556848
0000b0 ce 4a 93 bd 91 fd 81 be e2 a3 56 be aa 75 18 be
       -0.07192002 -0.25388768 -0.20960954 -0.14888635

bn5.running_mean f4 [48]
000000 3a c1 de bf 1f 4b a1 be 2d f0 7b bf e9 66 ce bf
       -1.7402718 -0.31502625 -0.98413354 -1.6125156
000010 64 c8 de be 34 ca 5e bf f2 e1 d7 bf 23 23 44 bf
       -0.4351226 -0.8702729 -1.6865828 -0.76616114
000020 10 25 61 bf ee aa 01 c0 fa 11 51 bf f5 f4 fb bf
       -0.8794718 -2.0260577 -0.81668055 -1.968413
000030 8d a7 9e 3e b9 f5 b6 bf 9e 5d 5f 3f e0 f8 11 c0
       0.30987206 -1.4293739 0.87252223 -2.2808151
000040 0e 5b b0 3f 0c 15 c7 bf 11 a6 6e c0 47 47 ef bf
       1.3777788 -1.5553298 -3.728886 -1.8693627
000050 ec ea c5 bf df f4 c3 bf cb ea 7e bf 11 a3 df bf
       -1.5462317 -1.5309104 -0.99577016 -1.7471639
000060 ae 14 29 c0 88 54 04 be 3f c6 80 3d 97 62 a2 bf
       -2.6418872 -0.12922871 0.062878124 -1.2686337
000070 39 ae 84 bf f6 c3 03 c0 84 0a 8e bf fb 3c 94 3f
       -1.0365669 -2.0588355 -1.1096959 1.158111
000080 c0 cf 6c 3f b2 85 e6 bf d8 ae e1 be 6a 4b a7 bf
       0.925045 -1.800955 -0.44078708 -1.306989
000090 a3 e6 c2 be 0f a5 1a 3e 00 eb ab bf 82 88 d0 be
       -0.38066587 0.15102027 -1.3431091 -0.40729147
0000a0 4a 18 ba bf 3a f8 ab bf f7 10 6d 3e 34 eb 8c bf
       -1.4538662 -1.3435128 0.23151003 -1.1009278
0000b0 44 8b 95 bf 4c 43 b4 bf 50 50 72 be df d4 73 bf
       -1.1683125 -1.4083037 -0.2366345 -0.9524669

bn5.running_var f4 [48]
000000 8c 2a ec 3f b1 a0 fc 3f 4c 4e fb 3f 45 a5 f4 3f
       1.8450484 1.9736539 1.9633269 1.9112936
000010 6e 79 0c 40 51 0c da 3f 27 3b 0f 40 ec 06 db 3f
       2.1949115 1.7035009 2.2379854 1.7111487
000020 c2 02 15 40 71 ab 0a 40 28 d2 0a 40 05 4b 00 40
       2.3282933 2.166714 2.169077 2.0045788
000030 a5 8e cd 3f ef a4 d2 3f f1 24 c7 3f b5 01 3b 40
       1.6059157 1.6456584 1.5558149 2.9219792
000040 8e 64 23 40 d8 0a c7 3f 19 e1 59 40 51 9b 17 40
       2.5530124 1.5550184 3.4043639 2.3688548
000050 aa ea 39 40 17 79 36 40 3a 21 33 40 65 8d e6 3f
       2.9049478 2.8511407 2.798903 1.80119
000060 8e 23 2c 40 2c 80 b0 3f 10 cf be 3f 8e 0f d9 3f
       2.68967 1.3789115 1.490694 1.6957872
000070 7e 5a 20 40 01 2f 0a 40 0c 22 2e 40 58 42 12 40
       2.5055232 2.159119 2.720828 2.2852993
000080 2b b2 b2 3f 80 b0 00 40 73 11 a7 3f a7 81 e6 3f
       1.3960623 2.0107727 1.30522 1.8008317
000090 96 72 c1 3f c5 34 cd 3f 04 2a 35 40 ae 58 bc 3f
       1.5113094 1.6031729 2.8306894 1.4714563
0000a0 9f 5f 08 40 4d 60 07 40 0c f5 9c 3f 42 6e 1d 40
       2.1308362 2.1152527 1.2262282 2.4598546
0000b0 f7 01 11 40 d4 71 a5 3f 4f 6a bf 3f 8f a0 92 3f
       2.265745 1.2925363 1.4954318 1.1455249
