enhanced_best_model.pth (torch, 53111 bytes, 38 tensors)

conv1.weight f4 [8, 1, 3, 3]
000000 5f 7a 00 3f dd ca 53 3d 8f 72 b3 bc 3b fc 11 3f
       0.50186723 0.051707137 -0.021905212 0.570255
000010 59 e1 e3 bd 47 e2 ee 3c 75 b7 f1 be e9 d7 4a be
       -0.11126966 0.029160632 -0.4721028 -0.19808926
000020 34 e1 24 3d 60 3f cc be 35 dc 8c 3e 93 f4 b8 3e
       0.040253833 -0.398921 0.27511755 0.36124095
000030 53 85 08 be 59 96 01 3d c7 7f ca 3e 7d 33 c5 be
       -0.13332109 0.031637523 0.3955061 -0.38515845
000040 54 d2 a9 3d 23 cc 9d 3d be 2e 32 3e a6 41 2a be
       0.0829207 0.077049516 0.17400643 -0.16626605
000050 41 ed b4 be a2 fa 60 3e 6d 13 0d bf fa c6 c9 3d
       -0.3533726 0.21970609 -0.55107766 0.09852405
000060 7f cb bf be ec c1 c0 be f5 66 b5 3d c7 af 1f be
       -0.37459943 -0.3764795 0.08857528 -0.15594397
000070 87 46 32 bd 00 ee f8 be 3b 7c 43 3e ae 47 78 be
       -0.04352429 -0.4861908 0.19090359 -0.24246094
000080 7f 03 fa 3e b0 b6 3a bd d4 57 da 3d dc 2c e8 3e
       0.48830792 -0.04558438 0.10661283 0.45346725
000090 72 ce c0 be 1d c7 f0 3d 52 8c 75 3d 77 62 b4 be
       -0.37657505 0.11756728 0.059948273 -0.35231373
0000a0 13 72 8e 3e 35 d8 f5 3d d6 8d 5a 3e 90 10 ba 3e
       0.27821407 0.12004129 0.21343169 0.3634076
0000b0 21 9a 26 3e 7c 25 41 3d 42 6f a0 3e 25 6b 23 3e
       0.16269733 0.04715489 0.31334883 0.15958841
0000c0 d8 2c 40 3d b4 e6 63 be 52 33 16 bf 84 ef 11 bf
       0.046917766 -0.22255975 -0.5867206 -0.57006097
0000d0 a3 80 03 be 78 1a 70 3e 99 0c 9c 3e a4 7d 9c 3e
       -0.1284204 0.23447597 0.3047836 0.30564606
0000e0 58 8f 10 3d 76 e1 08 3e ff eb 93 3e 13 71 f6 be
       0.035292953 0.13367257 0.28890988 -0.48133144
0000f0 9c 2b ba 3d 82 4d 35 be d3 06 0f be ad 40 8c 3d
       0.09090349 -0.17705348 -0.13967447 0.068482734
000100 f3 f4 0c 3e a1 25 b3 be 0c 5b ba 3e 62 b2 f3 bd
       0.13765316 -0.34989646 0.36397588 -0.11899258
000110 e8 41 d5 be f9 df d1 3c e3 b9 e1 3e 90 1e 9c 3c
       -0.41651845 0.025619494 0.44087133 0.019057542

conv1.bias f4 [8]
000000 f5 bd 9b 3e 33 7a b9 bd 78 ad b8 be 92 89 aa be
       0.30418363 -0.09056511 -0.36069846 -0.33308083
000010 55 08 c3 be 73 9d a7 3e be 96 b0 3d ee 73 07 3e
       -0.38092294 0.32737312 0.08622502 0.13227817

conv2.weight f4 [16, 8, 3, 3]
000000 cc c7 0f bf b8 73 71 be 3b 9f 01 3e 50 97 4d 3d
       -0.5616424 -0.235793 0.12658398 0.05019313
000010 28 d6 10 be e2 a2 3a be 03 41 62 3d ca 4e 32 bd
       -0.14144194 -0.18226197 0.05523778 -0.04353217
000020 07 95 50 be d6 b0 03 be 11 a1 e2 3d e7 ff 87 3e
       -0.2036935 -0.12860426 0.11065877 0.26562425
000030 70 fc 67 be 45 28 ee 3d a1 80 0e 3e 8e 03 b2 bc
       -0.22654891 0.116287746 0.13916256 -0.02173021
000040 25 90 28 be b7 7d b9 bc 6e bb 98 be 57 af 8a be
       -0.16461237 -0.022642953 -0.29830498 -0.270869
000050 79 c3 6a 3b ef a0 b4 bd 40 a0 49 be 9e 4c 6a 3c
       0.0035822077 -0.08819758 -0.19690037 0.0143004935
000060 1b cd c5 3d eb 50 df bd e6 89 1e 3d bb 87 50 be
       0.096582614 -0.10904106 0.03870573 -0.20364277
000070 e7 d0 b4 be 0b 49 02 be 80 87 cd 3d e6 3c 9b be
       -0.3531563 -0.12723176 0.1003561 -0.303199
000080 8d 23 c9 be e3 9a 6b bd fe 03 14 be fc 42 e6 be
       -0.39284936 -0.05752076 -0.14454648 -0.4497298
000090 20 d5 72 be 1f bd 03 be b6 c6 16 3a b5 5f 23 3e
       -0.23714113 -0.12865113 0.0005751656 0.15954478
0000a0 6a 2c 0e be 31 24 95 be 30 8a a2 3e 3f 5c e8 bd
       -0.1388413 -0.29129174 0.31746054 -0.113457195
0000b0 be 38 68 be ee 76 17 bd 73 18 81 bd 07 87 80 bd
       -0.22677895 -0.036978655 -0.063034914 -0.062757544
0000c0 00 e6 37 3e b2 2a 54 be a8 3b f7 bd cd 00 28 3e
       0.17958832 -0.20719412 -0.120719254 0.16406555
0000d0 84 05 c9 3c 53 d0 97 3d 75 ac 31 bf 9f 69 7c be
       0.024538763 0.074127816 -0.69403774 -0.24649666
0000e0 db 4f 8c bd 7c 53 92 be 5d ae 00 bf 8e aa e8 be
       -0.06851169 -0.2857932 -0.5026606 -0.45442623
0000f0 bf 0f 57 3e e5 99 fb bc 27 96 dc be af fc d6 3d
       0.210021 -0.030713031 -0.43083307 0.10497414
000100 8a f5 cf 3d 56 34 05 be 27 16 01 3e 35 ea 41 3e
       0.10154255 -0.13008246 0.12606107 0.18936999
000110 07 98 91 3d 79 61 7f 3d 10 d3 2f 3e 3b d0 f0 3d
       0.07109075 0.062348817 0.17170358 0.11758467
000120 0c da ad bd 41 cb 4a be 36 f5 b5 be ec 35 91 bd
       -0.08488855 -0.19804098 -0.35538644 -0.07090363
000130 06 51 8f bd 36 b0 87 3b 8e ab 37 3e 58 51 9b 3b
       -0.06997876 0.004140879 0.17936537 0.0047399215
000140 e9 f0 70 3e 44 e0 54 be dc 56 48 be 01 c2 a0 bd
       0.235294 -0.20788676 -0.19564384 -0.07849503
000150 03 07 cc bd db e7 e1 bd 6d 27 f3 bc 0c 63 a6 bd
       -0.09962275 -0.11030551 -0.029681886 -0.081243604
000160 ca 4f 5f be 6d 10 29 be 0a 7c 83 3d a9 d2 9d 3e
       -0.21807781 -0.16510172 0.06420143 0.30824783
000170 d3 65 05 3e ce 3e aa be 16 2e 66 be db b9 4b be
       0.13027124 -0.3325104 -0.22478518 -0.19895117
000180 d9 b8 70 bf 56 ed 3e bf 06 36 f4 be 10 ac 08 bd
       -0.94032055 -0.74580896 -0.47697467 -0.033367217
000190 e2 6b ef 3c 99 31 69 3d 56 70 35 3d 14 68 17 3e
       0.029226247 0.056932066 0.044296585 0.14785796
0001a0 93 ff 90 3e d7 f1 5d 3e 80 0c 6d 3e 1f bc 31 3d
       0.28319988 0.21674286 0.231493 0.043392297
0001b0 8c ab 42 bc 35 74 7b bd 65 29 8f 3d ec 2c ea bd
       -0.01188172 -0.06139012 0.06990317 -0.114343494
0001c0 cb 7b 1b bc 29 ee 57 3e 05 01 96 3e 0b 81 94 3d
       -0.009489964 0.21086945 0.29297653 0.072511755
0001d0 1b a9 d7 3d 58 8a 16 be d2 e9 a9 3e 3a a5 0c 3e
       0.10530301 -0.14701211 0.33186203 0.13734904
0001e0 5d 4f 1f be e4 d8 42 3e a9 10 39 3e eb 8a 5c bd
       -0.15557618 0.1902805 0.18072762 -0.05384342
0001f0 c8 8f 1b be 0a 04 1b be 1f fe 98 bc 45 41 f5 be
       -0.15191567 -0.1513826 -0.018675862 -0.4790136
000200 e6 d6 a8 be 00 60 00 bd 04 d7 10 be ad b5 46 3e
       -0.32976454 -0.031341553 -0.14144522 0.19405241
000210 7c 96 ea bb 0c 9d cc 3d d4 02 70 3d e8 2a 3b 3e
       -0.0071590524 0.09990892 0.058596447 0.18278086
000220 65 bf 4a 3c 5e 90 e4 bd 49 c8 a1 bd be 6c 97 be
       0.012374734 -0.11160348 -0.078995295 -0.2957515
000230 30 a0 90 3c 0c b3 7f 3e cf 68 d4 be 27 be 21 be
       0.017654508 0.24970645 -0.41486213 -0.15795194
000240 8e 9d 54 be d3 7a 71 3e 44 69 b1 3e 2f 76 d6 be
       -0.20763227 0.2358201 0.34650624 -0.41887042
000250 71 46 d9 bd 51 ed e8 3c c1 be ef be 5b c0 4a be
       -0.10609139 0.028433474 -0.4682522 -0.1979994
000260 c3 ab c2 bc 47 e3 c7 3e b3 bd a1 3e 1e 64 d5 3e
       -0.023763543 0.39040586 0.31590042 0.41677946
000270 53 51 5f 3d d4 1b db 3d a4 98 ba 3d 09 dd 67 be
       0.054520916 0.10698667 0.09111145 -0.22642912
000280 31 5f cb bc b2 4b 72 bd c3 20 60 be 04 35 8b be
       -0.024825664 -0.05915422 -0.21887498 -0.27188885
000290 61 b0 92 be 23 e0 21 bd b2 b5 4a be bc 06 f8 bd
       -0.2865019 -0.039520394 -0.19795874 -0.121106595
0002a0 f5 d2 56 3d 5e c6 b6 bc b9 6f 70 bd 47 6c 85 be
       0.052447278 -0.022311386 -0.058700297 -0.26059172
0002b0 3c 90 08 be 72 a9 e2 3d 55 47 84 be f6 04 ad be
       -0.13336271 0.110674754 -0.25835672 -0.33792847
0002c0 27 25 a1 bc 80 2f 10 3c 71 b7 62 bd eb 13 14 be
       -0.019671036 0.008800387 -0.055350725 -0.14460723
0002d0 24 c1 e5 3c 11 fa 19 bc 0b 89 2a 3e cc 90 85 be
       0.028046198 -0.009397999 0.1665384 -0.26087034
0002e0 ba 99 94 bb 76 1c 4f 3d cc 00 0e bd c9 ab cc 3d
       -0.004534927 0.05056425 -0.03466873 0.09993703
0002f0 71 56 db 3c 6a 48 d0 3c 99 f2 b9 bc 90 d6 59 3b
       0.026774617 0.025425155 -0.022698687 0.0033239461
000300 5c 9f 3e 3b d7 7c 36 bd 54 fa b0 3e 8c de a8 3e
       0.0029086685 -0.04455265 0.34565985 0.3298229
000310 f5 5f ae 3e 08 ec aa 3e c5 7c d3 3d 8b 13 76 bd
       0.34057584 0.33383203 0.10326532 -0.06007723
000320 07 9b d5 3d 5f fa c6 be 54 a1 2e be c0 90 a9 3d
       0.1042996 -0.38862893 -0.1705373 0.08279562
000330 01 74 d1 be a3 45 9b be 9c 9c 3d be 55 fd 93 3d
       -0.40908816 -0.30326566 -0.18516773 0.072260536
000340 06 71 4f bd 81 a6 94 be 83 a1 52 be df ef ef bd
       -0.050644897 -0.29033282 -0.20569424 -0.11715674
000350 2d bb e5 be 5b e0 3e bd b1 c1 7d 3d 70 f2 69 be
       -0.44869366 -0.04660068 0.061952297 -0.22846389
000360 02 95 98 3d 6e 5b 87 3e b6 e6 80 3e aa 4d 7b be
       0.07450296 0.26436943 0.25176018 -0.24541345
000370 95 34 86 be b4 a3 c8 bd ee 18 cc 3c dc b9 c1 bd
       -0.26211992 -0.09796849 0.024914231 -0.09459278
000380 e9 ca 28 bd c9 46 c2 3d 2e 37 50 3e 21 e1 47 3e
       -0.041209135 0.094861574 0.2033355 0.19519474
000390 ea fc 8d be 91 c3 4c be af 34 e2 bd f5 6c 2b be
       -0.2773202 -0.19996478 -0.11045205 -0.16740783
0003a0 7c 97 86 be 74 69 01 be 93 76 d4 3d 65 55 ad bd
       -0.26287448 -0.12637883 0.10374179 -0.08463553
0003b0 6a a7 74 3d ae 75 7a bd 72 86 cb bd 84 1d 17 3d
       0.05972997 -0.061147384 -0.09937753 0.036893383
0003c0 d4 8d 51 bd ac 38 c0 bc 90 6e 51 3e 05 2a ba be
       -0.05116065 -0.023464523 0.20452332 -0.36360183
0003d0 a4 46 8f be 5a e4 06 be 5f 77 52 be f6 4e ca be
       -0.27983582 -0.13173047 -0.20553349 -0.39513367
0003e0 5f d5 05 bf b7 7f 8e 3e ed 7a 9e 3e b1 9f f3 bc
       -0.52278703 0.27831814 0.3095316 -0.029739233
0003f0 60 4f 9a be 11 55 b2 bd 50 79 a1 3d ac fa 33 3e
       -0.30138683 -0.087076314 0.07884467 0.17576092

conv2.bias f4 [16]
000000 51 3b b4 3e a5 93 1a 3e d1 41 02 3e 46 77 c8 bc
       0.35201505 0.15095384 0.1272042 -0.024470937
000010 82 dd 49 be f1 e1 83 bd e8 af 14 3e ce e7 00 3f
       -0.19713405 -0.06439579 0.14520228 0.50353706
000020 87 af 61 be 46 b6 7e be 64 b7 90 bc b6 84 28 3e
       -0.22039615 -0.2487422 -0.017665572 0.16456875
000030 14 1e 28 3e 4c fa b3 3d 04 25 a9 be fa 7d 74 be
       0.16417724 0.08787975 -0.33036053 -0.23876181

conv3.weight f4 [16, 16, 3, 3]
000000 df 37 8d bd 1f 3c 9a bd 31 17 4d bd 09 5d dd be
       -0.06895422 -0.075309984 -0.050070945 -0.43235043
000010 a0 1f 66 be 93 c4 9b 3d ef 43 e0 be 11 5a 27 3e
       -0.22473001 0.07605853 -0.4380183 0.16342951
000020 e6 b2 89 3d d0 34 75 3e 20 07 6f 3e 62 b7 86 3e
       0.06723575 0.23945928 0.23342562 0.26311785
000030 b2 da a0 3d c5 27 30 be 69 4d 90 be 5f 99 4a be
       0.07854213 -0.17202671 -0.2818406 -0.19785069
000040 93 f4 81 3d 9e a7 2e 3d 1b c7 49 3e e3 6b 86 3e
       0.06345477 0.04264032 0.19704859 0.26254186
000050 db ca b9 3d 9d 86 65 be 59 86 85 3c c9 94 79 bd
       0.09071895 -0.22414632 0.016299414 -0.06093291
000060 07 6f 09 bf 8b d5 90 3d 8c 6b 33 3e 39 d1 56 be
       -0.5368504 0.0707198 0.17521495 -0.2097825
000070 98 59 f0 bd 88 e3 4c 3d 32 4c 7a be ae 81 1d be
       -0.11735839 0.05002168 -0.24443129 -0.153815
000080 f0 ef a2 be 8b ca 8f be da 05 00 3e 4d 09 10 be
       -0.31823683 -0.28084216 0.12502232 -0.14066048
000090 47 29 3b 3d 23 0e 6e be ce 96 f1 be b1 67 3d bd
       0.045693662 -0.2324758 -0.47185367 -0.046241466
0000a0 f9 6d e3 bc b7 bf 74 3c 8f 99 a0 be 3c 6b 08 3e
       -0.0277624 0.0149382865 -0.31367156 0.13322157
0000b0 2d a1 a3 3d 92 93 4f 3e 0e ab ba 3e 2d 4f f3 3e
       0.07989726 0.20271137 0.3645863 0.47521344
0000c0 c7 4a 1c be c5 53 5f be b8 5b 2b 3c f9 c8 e2 bd
       -0.152629 -0.218093 0.010458879 -0.11073489
0000d0 29 e1 a3 be 9e 0f 94 be 93 ef 03 3d be ee 8b bd
       -0.3200772 -0.28918165 0.032210898 -0.06832646
0000e0 9b 6b 50 3c a1 32 c0 3d 79 a9 cf bd ca 0c 1f 3d
       0.012720968 0.09384657 -0.10139746 0.038830556
0000f0 d7 c5 6c 3d 43 60 a5 bd 56 8e a2 3e 96 87 9d bd
       0.057805862 -0.08075001 0.3174922 -0.076918766
000100 dc a3 7e bd 03 7b 15 3e ff 20 b0 be e2 95 88 be
       -0.062167987 0.14597706 -0.34400174 -0.26676852
000110 91 d4 2d 3e 95 f8 01 be 67 e1 3b be e8 16 84 3d
       0.16975619 -0.12692483 -0.18347703 0.064496815
000120 a5 38 66 bc af 8f 82 bd 83 e0 26 be 22 41 38 3d
       -0.014051591 -0.06375062 -0.16296582 0.04498399
000130 ec c0 be bd 2f 64 30 be d7 8a 00 3e e7 ce ba 3d
       -0.09314141 -0.17225717 0.12552963 0.09121495
000140 c3 93 2f bc fb ba e6 3c e4 b6 77 be a7 c1 4d be
       -0.0107163815 0.028165331 -0.24190861 -0.20093404
000150 ce 40 b5 3e bd 8a 41 bc b1 41 6b be 5e 7a 17 3d
       0.35401005 -0.011812863 -0.22974278 0.036981933
000160 9d 7b 47 3e 20 85 92 3e d3 1c 06 3c b8 c6 20 be
       0.19480748 0.2861719 0.008185583 -0.15700805
000170 36 a6 b2 3d 1a 7d 24 bc aa 3f 89 bd 71 95 3c 3e
       0.087231085 -0.010039592 -0.06701596 0.18416382
000180 59 ac 8d 3e ee 82 a8 3e 8e 6f 0e 3f f2 16 ea 3d
       0.27670553 0.3291239 0.5563897 0.11430158
000190 30 51 a6 bd 72 b0 75 be 50 7c 61 3e fe c4 65 be
       -0.08120954 -0.2399309 0.22020078 -0.22438428
0001a0 cd 7f 1a be 88 a7 24 3e 16 83 fa bd 49 67 49 3e
       -0.15087815 0.16079533 -0.12232034 0.19668306
0001b0 1e 50 f0 3d 5d b3 8e 3d 6a 93 68 3c dc 83 0a 3e
       0.11734031 0.069678046 0.0141953025 0.13526863
0001c0 6e 41 81 be 2b 63 1c be 34 9b b3 be 3f 45 2d bd
       -0.2524523 -0.15272205 -0.35079348 -0.042302366
0001d0 88 38 88 be eb 7d 94 3b 41 0b d6 bc 62 03 bd bc
       -0.2660563 0.004531612 -0.026128413 -0.023072902
0001e0 58 90 4c 3e 2b f8 8b 3d 74 d7 1d be e9 39 fa bd
       0.19976938 0.06834444 -0.1541422 -0.12218077
0001f0 1e 9c e3 bd 51 c6 1c be a9 56 b9 bd 2b d0 01 bc
       -0.11113761 -0.15310027 -0.09049732 -0.007923166
000200 73 2f 6a 3e 9b a3 08 be ff 41 3f 3e db bc cb 3e
       0.22869663 -0.1334366 0.1867752 0.39792523
000210 20 6e 9e 3d a7 34 de bd ff 02 ef 3d c2 74 97 3e
       0.077358484 -0.108498864 0.11670493 0.29581267
000220 88 37 b4 3e 54 74 fc 3e 91 f6 ae 3d fd 88 d6 3d
       0.35198617 0.493075 0.085431226 0.10475347
000230 21 f8 43 3e 0e 69 83 be 50 a1 82 be 6c e9 46 3b
       0.19137622 -0.25666088 -0.25513697 0.0030351533
000240 14 71 2c 3f c0 d7 66 3e bf f5 ac 3e e9 0e 71 3e
       0.67360044 0.2254324 0.3378124 0.23540844
000250 b8 70 ea 3c 70 51 cf 3e 28 8b 72 3b e5 1a 31 3c
       0.028618202 0.4049182 0.0037009213 0.010809635
000260 a3 ba b6 3e 64 1b c0 be 6e 5f c9 bd 22 ff 92 bd
       0.35689268 -0.37520897 -0.09832655 -0.07177569
000270 6a 10 d4 bd e5 b1 3f bd a4 9e 16 be 88 6a 53 bd
       -0.10354693 -0.046800513 -0.14708954 -0.051615268
000280 22 eb f9 bb b2 35 62 be 4d a5 0e 3e 4c c5 80 bd
       -0.007626907 -0.22090796 0.13930245 -0.062876314
000290 86 27 a4 3d bd 65 9a 3e c4 e7 72 3e 01 7b eb 3e
       0.08015351 0.30155745 0.23721224 0.45992282
0002a0 10 77 a1 3e f0 95 50 3e 44 59 9c 3e 79 31 22 3d
       0.3153615 0.20369697 0.30536854 0.039597962
0002b0 0f d1 fd 3c 7b 40 59 3c 63 19 c6 3c c5 f8 c3 3d
       0.030983476 0.013260002 0.024182027 0.095689334
0002c0 2b 8d ff 3d 9d 42 1d be f3 76 e2 be 31 cd 95 be
       0.124780975 -0.15357442 -0.44231376 -0.2925811
0002d0 57 c1 17 3d a9 12 a5 3c 3b 70 e1 bd 65 48 a1 3e
       0.037049618 0.0201505 -0.110077344 0.31500545
0002e0 f0 96 19 3c a0 e5 bf bd 27 be d0 3d 26 5f 4d bc
       0.009374365 -0.09369969 0.10192519 -0.012534892
0002f0 26 96 a5 3d 18 9d 17 be f0 21 ed bd 39 ae 2f 3c
       0.08085279 -0.1480602 -0.11578739 0.01072269
000300 a1 a0 aa bd 80 a8 19 3d fd ed 92 bd ff ab 31 be
       -0.08331419 0.03751421 -0.07174299 -0.17350768
000310 cb 18 2c be 48 45 2f be 74 85 ec ba 18 36 35 bd
       -0.16806333 -0.17116272 -0.0018045143 -0.04424104
000320 f7 b9 83 be 6a 4d 26 3d 29 3a b1 bc 0c 70 cc be
       -0.25727817 0.04060117 -0.021634178 -0.39929235
000330 43 08 25 3e 50 bb de 3d 28 58 64 be 36 76 91 3e
       0.16116433 0.10875571 -0.22299254 0.284105
000340 0f 0c 82 3e c7 3d 4c 3e d8 91 86 3e f4 0f 32 3d
       0.25399825 0.19945441 0.26283145 0.043472245
000350 16 92 92 3d 94 4e 08 3e a2 45 12 3e f0 63 d9 3d
       0.0715677 0.13311225 0.14284375 0.10614765
000360 75 86 8d be ab c6 91 bd 4d 6a e2 bc 3e b2 cd bc
       -0.27641645 -0.07117971 -0.027638579 -0.025109407
000370 a4 ad 42 3d da e3 1b bd 0d 20 28 3e 8c 6a 92 3d
       0.047528878 -0.038059093 0.16418476 0.071492285
000380 06 16 25 3d b3 65 12 bf a0 01 00 bf 00 49 0f bf
       0.040304206 -0.5718643 -0.5000248 -0.55970764
000390 16 98 99 be 6d cd 5d be 5f 33 ee be da b5 0d be
       -0.29998845 -0.21660395 -0.46523568 -0.13838902
0003a0 86 cf 5e be c7 e3 1d bf e2 15 01 be 6f 16 c4 bd
       -0.21758851 -0.61675686 -0.12606004 -0.09574591
0003b0 6e 04 1f be 93 3b 80 3c cc 02 c4 3d 4d 84 2e be
       -0.15529034 0.015653407 0.09570846 -0.17042656
0003c0 a9 5d 89 bd dd 3d bc bd 09 8f 01 bf e8 0e ee be
       -0.067073174 -0.09191487 -0.5060888 -0.46495748
0003d0 e5 b1 e5 bd 68 8f d7 bd 8c 12 36 be 83 8a 9d 3b
       -0.11215571 -0.105253994 -0.17780513 0.0048077716
0003e0 fa 70 73 be 2c f0 16 3e bd e4 2f 3e 34 de 82 be
       -0.23773566 0.14740056 0.171771 -0.25560153
0003f0 5d b9 07 3e b9 82 e8 3d 65 a5 1a be ad a6 08 3e
       0.13254304 0.11353058 -0.15102156 0.13344832

conv3.bias f4 [16]
000000 e3 0c 00 3d 5a cf fe 3d ce c9 a4 bd 90 2e 5a be
       0.03126229 0.12441893 -0.08046304 -0.21306825
000010 0b de af 3e c4 aa c0 3d 91 13 92 3d 43 c4 94 3d
       0.34349093 0.09407571 0.07132638 0.072639965
000020 27 cd 70 3e 23 d2 9e 3d 47 a1 48 3d 00 6f bf bd
       0.2351576 0.07754924 0.04898193 -0.093473434
000030 6a c6 18 be e7 52 ae be 2a 7c 0c bd fa bc be 3e
       -0.14919439 -0.34047624 -0.0342981 0.37253553

conv4.weight f4 [16, 16, 3, 3]
000000 d3 ab d9 3d c4 a1 f8 3d 40 31 a5 3e 52 a8 2c 3e
       0.10628476 0.12140229 0.32264137 0.16861084
000010 d5 75 4d 3e be 48 d5 3d 71 c9 9e 3e ec 7e 01 3e
       0.2006448 0.10414265 0.31013063 0.12646073
000020 75 be 93 bd 80 fa ba be 46 a9 1e be e5 67 0e 3e
       -0.07214061 -0.3651924 -0.1549426 0.1390682
000030 1c 81 29 be c0 c3 72 3a 3b dc f4 bb 9b 51 7d be
       -0.16553158 0.00092607364 -0.0074725426 -0.24738161
000040 cc a6 58 3d 2c 17 0e be d1 1f 9d bd 0b fa d4 bd
       0.052893445 -0.13876027 -0.07672084 -0.103992544
000050 7c ae 9f be c6 cb 20 be ca 66 73 3c c9 ea 9d bd
       -0.3118781 -0.15702733 0.01485605 -0.07710797
000060 9f 67 99 be 6e da 00 3e 8c c5 bd 3e bc 35 7e 3d
       -0.2996187 0.12583324 0.3706478 0.062062964
000070 b2 1c 43 bb b3 81 73 3d d6 b0 f9 bd 6c a9 af bc
       -0.0029771742 0.059449863 -0.12191932 -0.021443091
000080 68 3f 51 3d 75 fe a1 be 54 47 84 bd 4c b6 79 bd
       0.05108586 -0.31639448 -0.06458917 -0.060964867
000090 fb 95 87 3e 73 e1 a2 3e 6d 7d 35 be 0b 61 04 be
       0.26481614 0.3181263 -0.17723627 -0.12927644
0000a0 e6 b3 55 3d fb 6e e1 bd 8a 21 e3 bc ae f6 f1 bd
       0.052173518 -0.11007496 -0.027725954 -0.118146285
0000b0 f1 01 93 be 47 1b 83 3e c4 24 56 3e 81 3a 76 3e
       -0.2871242 0.25606748 0.20912462 0.24045755
0000c0 0d 86 51 3d 3f f6 a3 3d f4 e8 65 3c ba ed 1f be
       0.05115323 0.08005952 0.014032591 -0.15618029
0000d0 35 a4 5e be 8f 53 d0 bd 68 f7 cb bd 5a 2e 02 3c
       -0.21742328 -0.101721875 -0.09959298 0.007945621
0000e0 01 7d ae be 3b 42 81 3b 19 32 2c 3d 64 37 b7 be
       -0.34079745 0.003944663 0.042039964 -0.35784447
0000f0 7f 84 02 3e b6 d4 2d bc 5a 30 47 bf 8f f8 5f be
       0.12745856 -0.010609796 -0.77808154 -0.21872161
000100 27 68 a1 3d 19 3e 50 3e 45 ac 63 be 9e af a4 3d
       0.078811936 0.20336188 -0.22233684 0.08041309
000110 1a 65 e6 3d d9 0b f9 bd b7 e6 b4 bb 5d b7 d8 be
       0.11249752 -0.12160463 -0.0055206674 -0.42327395
000120 b7 19 a4 bd 9d af 4a bd 23 c6 c4 3e 7b 15 54 3e
       -0.08012717 -0.049483884 0.38432416 0.20711319
000130 cc 2f 82 bd 23 29 3a 3e 88 4f fe 3d b9 af ce 3d
       -0.06356773 0.18179755 0.12417513 0.1009211
000140 dc 6b 14 3e 21 ee cc bd 2f 75 5e bd 45 d2 c9 bc
       0.1449427 -0.10006357 -0.054310974 -0.024636397
000150 c2 19 5e be 64 34 7d bd 28 48 0b bc 18 73 30 be
       -0.21689513 -0.06181754 -0.00850109 -0.17231405
000160 63 bf 09 bd 50 87 84 3d ab 85 ab bc 02 47 b5 bd
       -0.033629786 0.06471121 -0.020937761 -0.08851434
000170 06 68 52 be 46 d0 cd bd cb 19 88 bd 4d e3 2f be
       -0.20547494 -0.10049491 -0.066455446 -0.17176552
000180 85 7a b4 3c 65 28 d3 3d 3c 92 43 be 40 c2 94 be
       0.022031078 0.10310439 -0.19098753 -0.2905445
000190 66 5a ad be 34 91 80 be 98 43 ce be 97 dc c2 be
       -0.3385803 -0.2511078 -0.40285945 -0.38058922
0001a0 c3 70 5c 3e af e4 37 be b8 c9 c9 3d a2 90 82 3e
       0.2152739 -0.1795833 0.09852928 0.2550097
0001b0 4c b2 47 be 3e e3 94 bd 29 6d 18 be 4d bb 16 be
       -0.19501609 -0.072699055 -0.14885391 -0.14719887
0001c0 c9 a3 4a be 72 82 9f 3c 9c b0 b1 bc 10 f5 48 bd
       -0.19789042 0.01947138 -0.02169066 -0.049061835
0001d0 7d 96 b2 bd 58 f6 1c 3e 2e 60 35 be d6 74 9f be
       -0.087201096 0.15328348 -0.17712471 -0.31143826
0001e0 5b 48 37 3e 1b d1 46 be 35 11 3a be cb b1 b0 bd
       0.17898695 -0.19415705 -0.18170626 -0.08627661
0001f0 56 dd 4b be 7f 92 34 3d dd 94 8d 3c 67 7f 8e be
       -0.19908652 0.044085022 0.017282898 -0.27831575
000200 85 25 4e be 27 b2 85 3c 8f 1a b4 be 8a 4e 3f be
       -0.201315 0.016320301 -0.35176513 -0.18682304
000210 65 aa fd be 9c 92 bf be 6e 1d 36 3d 4b 37 8c 3e
       -0.49544063 -0.37416542 0.04446166 0.27385935
000220 0b 9a 77 bc 8d ea eb bd 18 bb 07 bd 85 51 ab be
       -0.01511241 -0.115193464 -0.03313741 -0.33460632
000230 aa e4 9b be e7 54 f3 be a7 36 95 be 01 da 4a bd
       -0.30447894 -0.47525713 -0.2914326 -0.04952431
000240 42 0e fe 3d f4 5d a2 3d b1 23 40 3e ff 13 82 3c
       0.12405063 0.079280764 0.18763615 0.015878676
000250 16 59 9e bc 67 c6 60 bd 7d c8 6a be 1e cb c4 bd
       -0.019329589 -0.05487671 -0.22928043 -0.09609054
000260 31 76 17 be 6c 8d 04 bf ac 14 04 bf 36 0e 13 be
       -0.1479118 -0.5177829 -0.5159404 -0.1436089
000270 18 04 5d be 87 76 eb bd 78 71 da bc 29 65 35 3e
       -0.21583593 -0.11497217 -0.026665434 0.17714371
000280 e3 59 bf 3d ec 3d 5b be 46 a4 5f 3e ed 87 16 3e
       0.093433164 -0.2141034 0.21840009 0.14700289
000290 c0 86 21 3d 75 da 4a bc 85 19 63 3a f1 e3 90 bd
       0.03943515 -0.012381186 0.00086631655 -0.070747264
0002a0 0b e2 51 3e 00 ff 16 3d de bc cb bd c5 1a 43 bf
       0.20496385 0.03686428 -0.09948133 -0.7621272
0002b0 e2 71 25 bf 28 c8 c7 be 26 20 02 bf cb 2e 91 be
       -0.64626896 -0.39019895 -0.50830305 -0.28356013
0002c0 09 85 1c 3d c9 57 e8 3d 18 86 89 3e ce 47 95 3d
       0.03821281 0.11344869 0.26860118 0.07289086
0002d0 48 51 35 3e 97 03 42 3e 5f 59 c4 3d 33 a3 c7 3d
       0.17706788 0.18946682 0.09587359 0.09747925
0002e0 b2 8a 69 be 1c ab 8c be 9d 12 1b bd dd f7 9d ba
       -0.22806814 -0.27474296 -0.037859548 -0.0012052018
0002f0 30 95 e3 bd 13 e4 4d 3d bf f3 80 bd 1c 96 a7 bd
       -0.1111244 0.050266337 -0.06296491 -0.08182928
000300 bd 90 ab 3d 8b 24 09 bd 36 7c 00 be 7c 0d 68 3e
       0.08377216 -0.033482116 -0.12547383 0.22661394
000310 1c d7 5d 3e 31 a0 23 be 33 18 95 3d 2e 2c 03 3e
       0.21664089 -0.15979077 0.07280006 0.12809822
000320 7a db 38 3e 7e c1 ab be 45 2f 83 bc 9d d2 24 3e
       0.18052474 -0.3354606 -0.01601375 0.16095968
000330 73 e2 16 bf 6c e0 53 be 1c 95 23 3e 2e 9e a2 3e
       -0.58939284 -0.20691079 0.1597485 0.31761307
000340 b6 e1 35 3e 56 f0 13 bb 11 ff ab be 23 60 30 be
       0.17761883 -0.0022573671 -0.33593038 -0.17224173
000350 22 10 13 be 6c 7b b0 be b8 16 1d 3e 4f 8d b1 3d
       -0.14361623 -0.34469163 0.15340698 0.086695306
000360 7e 18 7a be 20 f5 85 bc e0 d8 40 3e bc 79 c2 3c
       -0.24423406 -0.016352236 0.18832731 0.023739688
000370 0b 85 20 3e 12 da ca 3e ae 25 1c 3d 74 23 21 3e
       0.15675752 0.396195 0.03812187 0.1573618
000380 7e 2e a1 3e ca d0 82 bc 0c 23 05 3e 4e ed 4f bc
       0.31480783 -0.015968699 0.1300165 -0.012690855
000390 db ca 97 3d b5 2c d8 3d c9 0e 5f bc 00 3b fa 3e
       0.074117385 0.10555402 -0.013614365 0.48873138
0003a0 fb d8 a0 3e c6 61 85 3e d4 2c 28 3d bd 73 1c 3d
       0.31415543 0.26051158 0.041058376 0.038196314
0003b0 5e b4 2f 3e 5d a8 d4 be 22 e2 f6 bd 3c 40 06 3e
       0.17158648 -0.415347 -0.1205485 0.13110441
0003c0 65 d3 61 be c2 0f ac 3d 07 c0 7c 3e 20 f7 2e 3e
       -0.22053297 0.08401443 0.24682628 0.17086458
0003d0 2e 27 c3 bd 89 59 5f be 69 a5 84 3e 0b 9b 08 bd
       -0.09528957 -0.21811499 0.25907448 -0.033350985
0003e0 20 bf 9a 3c e8 95 86 3e 5f 26 0a be d3 7e 49 be
       0.018889964 0.26286244 -0.134912 -0.19677286
0003f0 b2 b9 56 3e 85 e9 a4 3d df c3 d5 bc 58 dd 9d 3d
       0.20969275 0.08052353 -0.026094375 0.077082336

conv4.bias f4 [16]
000000 b1 16 79 3d bc 9d 0d 3d 99 81 ce 3d 93 41 0f be
       0.060812656 0.034574255 0.100833125 -0.13989858
000010 8e 25 00 3e 70 dd 90 3d 22 ce 00 bd 72 3d 47 3d
       0.12514326 0.07073486 -0.031446584 0.048642583
000020 c9 e7 55 3e dd 5d c0 3e 96 f8 43 3e 32 be 0f 3e
       0.208892 0.37571612 0.19137797 0.14037398
000030 1b 9d b8 3d 61 85 03 3d 47 d3 45 bd 59 12 ba be
       0.090143405 0.032109622 -0.048297193 -0.36342123

conv5.weight f4 [16, 16, 3, 3]
000000 54 3b ce be 2e 48 07 bf e7 3c 78 be 2b 8c 74 3b
       -0.4027964 -0.5284451 -0.24241982 0.0037314992
000010 10 05 f4 3d d0 50 54 be 15 ca 63 be a4 f8 2d be
       0.11915028 -0.20733953 -0.22245057 -0.1698938
000020 50 87 83 be 16 3e 41 bd 62 ea d1 bb b4 64 8c be
       -0.25689173 -0.04717835 -0.0064061144 -0.2742058
000030 1e c0 e3 3c 1f ba 09 be 01 8f 83 be 98 76 e4 3c
       0.02780157 -0.13449906 -0.2569504 0.027888581
000040 4c 3b 8a bd 26 2a 05 3d 53 df 7c be ca e6 19 be
       -0.06749591 0.0325109 -0.24694566 -0.15029445
000050 d4 8a 27 3e 05 3b 35 be f6 f2 59 3c 9a a4 8c 3d
       0.16361552 -0.17698295 0.013302555 0.06867333
000060 4a 9a 86 be 8d 32 ca 3c fc ae 74 3b f8 fb 2e bd
       -0.26289588 0.024682308 0.0037335744 -0.042720765
000070 a5 52 39 be 6d dc b9 bd 25 69 32 3e b5 92 33 be
       -0.18097933 -0.09075246 0.17422922 -0.17536433
000080 f2 c5 9d bc 9c a7 3b bd 6c 5a 31 be 14 00 4a 3e
       -0.019259427 -0.04581414 -0.1731965 0.19726592
000090 f4 27 0b be 26 e9 3b 3e fa 73 38 3c a7 5e a9 bd
       -0.1358946 0.18350658 0.01125812 -0.082700066
0000a0 18 69 51 3c 06 25 90 3d 31 86 02 be fe 0a fe 3c
       0.012781404 0.07038312 -0.12746502 0.0310111
0000b0 5f 4f e4 3d a9 24 04 be a5 f4 4e bd 02 1b cf be
       0.11147951 -0.1290461 -0.05052628 -0.40450293
0000c0 c6 a7 69 be 1f 33 77 bc a0 15 97 bd 11 93 dc be
       -0.22817907 -0.015087872 -0.073771715 -0.43080953
0000d0 ca 9f 43 be 74 1b 02 be d8 55 5a 3d 2c 2c cb 3d
       -0.19103923 -0.12705785 0.053304523 0.099205345
0000e0 e2 e4 7b 3d 1a dc f0 bd e7 36 af bd 91 3e 92 bd
       0.061497577 -0.11760731 -0.08555394 -0.0714084
0000f0 71 45 26 be 17 d5 8b bd c6 4b b5 be 30 7e c2 3e
       -0.16237427 -0.06827753 -0.35409373 0.37986898
000100 0e 92 72 3e 90 94 9e bd 45 8d 98 3d 67 14 0e 3e
       0.23688528 -0.0774318 0.0744882 0.1387497
000110 8d ed 8b be 55 cf 50 3c 17 db 97 bc 97 1c 48 3e
       -0.27329674 0.012744744 -0.018537087 0.19542156
000120 a6 13 91 be 95 f3 ef bd bb b8 c4 be a7 79 c9 3d
       -0.28335303 -0.117163815 -0.38422188 0.098376565
000130 c6 73 f0 bd 33 50 27 be 9e d8 b6 bd b6 6b 24 be
       -0.11740832 -0.16339187 -0.08928035 -0.16056713
000140 cf 29 03 be 4c 4a 37 bd 19 40 88 be 5c e3 95 be
       -0.12808917 -0.04474859 -0.26611403 -0.29275024
000150 24 30 48 be 20 45 9b be 05 e3 c6 be d7 fb 8b be
       -0.19549614 -0.30326176 -0.38845077 -0.27340576
000160 99 e9 86 be 5e c0 a4 b9 17 6d bc be 3c 3b 40 3e
       -0.26350096 -0.00031423842 -0.3680198 0.18772596
000170 bd 3b db 3e 2e 56 05 be 1c 41 65 3e 91 c7 70 3e
       0.42819014 -0.13021156 0.22388119 0.23513629
000180 07 5a 64 be ac 48 45 be 5c 4c a5 3d c1 11 ff be
       -0.22299968 -0.19266003 0.08071205 -0.49818233
000190 12 8d 80 be ff d2 ef bd 5f 86 05 be 8d ad 75 3d
       -0.25107628 -0.11710166 -0.1303954 0.059979964
0001a0 92 73 21 bd 07 7f b6 bc 67 1c c2 bd 8a 5e 87 be
       -0.039416857 -0.022277368 -0.094780736 -0.26439315
0001b0 1f 98 af be c5 36 f8 be 33 4c 85 be 91 91 9c be
       -0.34295747 -0.48479286 -0.26034698 -0.30579808
0001c0 20 8a a5 bd eb ed 69 be 71 30 06 bf 66 94 a4 be
       -0.08082986 -0.22844665 -0.52417666 -0.3214447
0001d0 aa ea 9f be c4 dc 16 3e 16 1c 19 3c f3 27 37 3e
       -0.31233722 0.14732653 0.009345075 0.17886333
0001e0 99 75 28 be 9f 17 03 be c9 c3 1e bd f3 79 1d be
       -0.1645111 -0.1280198 -0.038760934 -0.15378551
0001f0 92 20 d0 bd ca 30 a3 3c 0b 2a 01 be 3d a6 ae bd
       -0.10162462 0.019920725 -0.12613694 -0.08527801
000200 d4 df a8 be 2b a0 50 3e f3 d0 45 bc 72 b8 5e 3c
       -0.32983267 0.20373599 -0.012073743 0.01359378
000210 b9 ef a0 be 20 c7 89 be 13 92 4c bd ff c7 1d bf
       -0.31432894 -0.26909733 -0.049943995 -0.61633295
000220 ec 0a 82 3d 02 93 b0 bd 4b 3d 85 bd 30 76 a1 3d
       0.063497394 -0.086217895 -0.06505831 0.078838706
000230 2b 3f 80 bc b8 10 33 be 42 2c 9f 3a 96 4f 07 bd
       -0.01565512 -0.17486846 0.0012143927 -0.033034883
000240 71 06 45 3e 73 a9 12 3d cf 1a 23 3d b1 9e cf 3d
       0.19240738 0.03580613 0.03982049 0.1013769
000250 69 54 c2 3d 8c 7f 3e be 4d c3 ef bc 69 3f 84 be
       0.09488756 -0.18603343 -0.029267931 -0.25829628
000260 af 77 4f bf 7e ed 02 3e 87 9a b7 3c ce f6 5c 3d
       -0.81042 0.12785909 0.022412552 0.05394631
000270 f1 7b 9d bc 50 90 a3 bd 67 ca 22 3d a9 40 41 be
       -0.019224139 -0.0798651 0.039743807 -0.18872322
000280 30 fb b7 bd a6 4c 09 bf ea 21 49 3e c1 26 38 3e
       -0.08983457 -0.5363258 0.19641843 0.17983533
000290 f6 80 5a 3e f7 cb 8f bb fc 90 d0 bd af 4c 94 be
       0.21338257 -0.004388328 -0.101839036 -0.28964755
0002a0 d6 09 a0 be 6c dd e8 be c5 3b b1 be 72 b5 03 3e
       -0.31257504 -0.4548143 -0.34615913 0.12862185
0002b0 08 fe 5b 3d 70 33 a5 3e ac d2 81 be 81 03 02 3e
       0.05370906 0.32265806 -0.25356042 0.12696649
0002c0 0c 77 f8 bd 10 d8 2e be b7 c3 e9 3d 0d 36 53 be
       -0.121320814 -0.17074609 0.11414283 -0.20626087
0002d0 36 6c df 3e 34 56 37 3e d1 be 44 3e 92 56 2f 3c
       0.43637246 0.17903978 0.19213416 0.010701792
0002e0 14 97 cd bd fd 06 9a be 1a 93 54 bd ed 94 08 3e
       -0.100385815 -0.30083457 -0.0518981 0.1333806
0002f0 11 fd a3 be 82 27 e5 be 7f 16 d5 bd fe 98 3e be
       -0.32029012 -0.44756705 -0.104046814 -0.1861305
000300 d4 a5 33 bd 7e b7 05 3e 97 27 a8 bd d5 a9 0c 3e
       -0.043859318 0.13058278 -0.08210676 0.13736661
000310 72 cc 82 3d 5f 09 b1 3c 45 76 a5 be 70 3d 82 be
       0.06386651 0.021610914 -0.32316795 -0.25437498
000320 62 b3 ba be 35 8f 21 be 7e ef 2f 3e 34 9c fb 3d
       -0.36464983 -0.15777285 0.17181203 0.12285653
000330 e4 3a d7 bd a4 49 96 3c f8 9e eb 3d 11 93 5e 3e
       -0.10509279 0.018345661 0.1150493 0.21735789
000340 1f 6e b1 3d 0e 67 64 3c 5c 6f 70 bb 4e 72 1f bc
       0.08663582 0.013940586 -0.003668747 -0.009731842
000350 51 25 d7 3e 8a cf e1 3b 32 38 97 3c 9b 06 c5 bc
       0.42020658 0.0068911957 0.018459413 -0.024051001
000360 17 9a 6f 3e c8 b3 0c 3e c0 4e b1 3d 2f de 21 3e
       0.23398624 0.13740456 0.086575985 0.15807413
000370 d6 71 db 3d aa 8a b3 be e7 ab 76 3e 98 fb d1 3d
       0.10715072 -0.3506673 0.24089013 0.10253066
000380 58 93 0b be c2 69 6e be aa c9 64 3e a8 e6 61 3d
       -0.13630426 -0.23282531 0.22342554 0.05515161
000390 0c 17 a5 3c 63 ff 97 3e 29 d5 05 3d 4a 70 da 3d
       0.020152591 0.29687032 0.03267399 0.10665949
0003a0 80 04 92 bd e7 48 b0 be 76 45 9e 3d dd 86 a7 bd
       -0.071297646 -0.3443062 0.07728092 -0.0818002
0003b0 45 a0 96 be e5 e2 ef bc ee 5e 1b bd 0b fd 7e be
       -0.2941915 -0.029282996 -0.03793233 -0.24901216
0003c0 bd f7 2f 3e cc 2f 14 be a7 27 0e 3e 7b cb d4 39
       0.17184348 -0.14471358 0.13882314 0.00040587396
0003d0 27 be 56 3d 2d 35 b8 3d c4 8b 89 be 12 65 19 be
       0.052427437 0.089945175 -0.26864445 -0.14979962
0003e0 7c a9 88 be 41 f2 1c bf f4 b3 bb be 4f 86 77 be
       -0.26691806 -0.6130715 -0.3666073 -0.24172328
0003f0 5f 85 c4 be 2e 50 1e be 58 70 1f be 41 af 7e bd
       -0.38383004 -0.15460274 -0.155702 -0.062178854

conv5.bias f4 [16]
000000 75 65 d0 3e 3e 7b 74 3c ea 8d 2a be 5a 62 dd be
       0.40702406 0.014921961 -0.16655698 -0.432391
000010 1e fc 25 bd db 73 5d 3e f9 7f ce 3c b7 ec 56 3e
       -0.04052364 0.21626227 0.025207506 0.20988737
000020 e4 5b 76 be f7 62 88 bd 2a 59 0f be ac dc 85 be
       -0.24058491 -0.06659501 -0.13998857 -0.26144922
000030 4a 15 85 be 2e a6 85 be 84 f5 90 be d9 a1 3f be
       -0.25992805 -0.26103348 -0.28312314 -0.18714084

conv6.weight f4 [16, 16, 2, 2]
000000 f9 7c 0a 3e 0d 83 80 bc 25 d4 b5 3d 8c 28 b8 bd
       0.13524236 -0.01568749 0.08878354 -0.08992109
000010 71 de 8f bd 1d 46 70 be 20 e9 9f 3c 93 eb e9 bd
       -0.07024849 -0.23464246 0.019520342 -0.11421885
000020 6b 04 b3 3c f6 75 11 bf 0d 48 f7 be fa 9d d8 be
       0.021852693 -0.5682062 -0.48297158 -0.42308027
000030 f4 3b ac bd 46 d3 b6 bd ea 11 0d be d6 ac 9e 3d
       -0.08409873 -0.08927016 -0.13776365 0.077478096
000040 a1 b7 20 3d 7e 54 47 3d b0 7e c3 3d fa 0d c0 3d
       0.039237622 0.048664562 0.09545648 0.09377666
000050 2e a0 e0 3d 45 63 56 3e 73 33 f9 3d c5 d5 4f 3d
       0.10968052 0.20936306 0.12168016 0.050740976
000060 c1 32 da be cf 0f d4 be 4d 28 34 be 91 85 4a be
       -0.42616847 -0.4141831 -0.17593499 -0.19777514
000070 73 70 db 3c e0 ea 99 3d 69 c9 75 3e ad de 29 3e
       0.026787018 0.07515502 0.24002613 0.1658885
000080 31 06 a6 be 92 8d 85 be 8a 97 c0 be fe 08 b7 be
       -0.324266 -0.26084572 -0.37615615 -0.35749048
000090 4a 6f ec bc a1 ff e3 3d 04 3d 6e 3d c0 60 96 3d
       -0.02886166 0.11132742 0.058163658 0.07342672
0000a0 45 41 b4 be 06 2a 9f be 1c 35 df be 8c d6 a0 be
       -0.35206047 -0.3108675 -0.43595207 -0.31413686
0000b0 99 a8 c5 bd c2 53 12 be 6a 4c 04 be b3 e8 0d be
       -0.09651298 -0.14289764 -0.12919775 -0.13858299
0000c0 f9 58 cb bd e8 c1 8a 3d 21 42 01 3e fa c7 40 3d
       -0.099290796 0.06775266 0.12622882 0.047065713
0000d0 2a 83 e4 bd c1 00 46 be d6 32 af bd a0 bb 6b bd
       -0.1115783 -0.19336225 -0.08554618 -0.05755198
0000e0 6b e6 85 3e 23 d2 d5 3c 98 ae d8 3e 51 4b c6 3e
       0.26152357 0.026101178 0.42320704 0.38729337
0000f0 f8 cd 23 be 68 02 8f bd 19 69 4a be 4c e4 1e be
       -0.1599654 -0.06982881 -0.19766654 -0.15516776
000100 2a 3c e9 be 5a c6 3d be 80 83 a9 be 3c 46 aa 3d
       -0.45553714 -0.18532696 -0.3310814 0.083141774
000110 8e 22 b9 be 5b 0e a9 be d5 ad 82 be 7f 68 0c be
       -0.36159176 -0.33018765 -0.25523248 -0.13711737
000120 4b 34 ef bc 83 bc 01 be 56 50 3a 3e 4b 8a 85 bd
       -0.02919974 -0.12669568 0.18194708 -0.06520518
000130 11 23 0e 3d 22 8d 3f 3d ab 9d 54 3e 7b 13 cc 3d
       0.03470141 0.046765454 0.2076327 0.09964653
000140 13 97 43 3e 7d ee 33 3d 68 37 93 3d fe 39 0b 3e
       0.19100599 0.043928612 0.07188302 0.13596341
000150 9c 61 76 be 11 2e 05 be 0d c3 01 bf 77 97 1a be
       -0.24060673 -0.13005854 -0.5068825 -0.15096842
000160 f3 d7 b0 3d e3 1a ac 3e 56 fa 82 3c 68 fd 7f 3e
       0.08634939 0.33614263 0.01598851 0.2499901
000170 95 01 7f bd ff 93 4d bd d3 13 32 bf 15 29 99 be
       -0.062257368 -0.05018997 -0.695615 -0.29914156
000180 8a 5a 77 be a3 eb 7f be 76 23 5e be 97 8f 06 bf
       -0.24155632 -0.24992232 -0.21693215 -0.5256285
000190 b8 e9 40 be d8 32 9c be 35 22 8c be c2 5e 55 be
       -0.18839157 -0.3050754 -0.27369848 -0.20836928
0001a0 70 7f 2d be 08 34 38 be 5d 23 b9 be 7f a2 51 be
       -0.16943145 -0.17988598 -0.36159793 -0.20472144
0001b0 7b dc c5 bd 91 21 50 bd 83 44 5c be b8 44 cd bd
       -0.09661194 -0.05081326 -0.2151051 -0.10022873
0001c0 36 86 d7 3c b8 94 20 be ea 67 dd 3b fe e4 ab 3d
       0.026309114 -0.15681732 0.0067567723 0.08393286
0001d0 a5 95 da bd 64 c8 29 bd 7a 3c b0 3c dd 2e d9 3d
       -0.10673074 -0.041450873 0.021513212 0.106046416
0001e0 4b 41 0c 3e 1b 3f 28 3e 22 3a 8b 3b ac e4 d6 3c
       0.13696782 0.16430323 0.0042488733 0.026232086
0001f0 65 7b df 3d 0b 62 e5 bb fb dc cc bc 06 20 aa 3d
       0.109122075 -0.007000213 -0.025007715 0.08306889
000200 90 ec 4b 3d ab bf 34 be e9 91 21 bc 1f b7 35 3e
       0.04978615 -0.1765124 -0.009861448 0.17745636
000210 25 51 d0 bd 37 4a 88 3d 56 2a 7e 3d 04 79 4c bc
       -0.10171727 0.0665478 0.062052093 -0.012480024
000220 0e fc 76 bd 8e ff 9b be b2 f4 ee bd 37 d2 1a be
       -0.06029897 -0.3046841 -0.11667766 -0.15119253
000230 13 70 f3 bb 09 b7 4c 3e 33 c3 9a 3e c4 dc 71 3e
       -0.007429132 0.19991697 0.3022705 0.23619372
000240 92 96 97 3d 59 3e 1e bc b5 68 98 bd fb 35 16 3d
       0.07401766 -0.0096584195 -0.07441846 0.036672574
000250 d9 2a b6 be 1a 25 cf be 28 05 b6 be eb c6 c8 be
       -0.35579565 -0.40457994 -0.3555081 -0.39214262
000260 e5 b9 02 be 97 32 52 be 25 aa f5 3c 89 d0 91 be
       -0.12766226 -0.20527111 0.029988358 -0.28479412
000270 20 5b a6 3e 82 53 c9 3d f9 d3 89 3e b7 7a ae 3e
       0.32491398 0.09830381 0.26919535 0.34078
000280 41 bf 9e be 52 44 b4 be d5 78 b2 be 21 21 ca be
       -0.3100529 -0.35208374 -0.34857813 -0.394784
000290 58 b7 ab be 3e 11 8b be 74 49 2c bf 45 1f 8a be
       -0.33538318 -0.27161592 -0.6729958 -0.26976982
0002a0 7c 3f 1e 3e 7d e3 1b 3e c6 ee 04 3e 9f 6d c8 3d
       0.15453905 0.15223499 0.1298171 0.097865336
0002b0 a0 96 57 bd 6b 16 d0 3d 06 78 26 be 11 b7 7e 3d
       -0.05263388 0.10160526 -0.16256723 0.062186304
0002c0 28 7d 90 3c a1 8c 65 bd e2 35 e6 3d e8 29 a2 bd
       0.017637804 -0.056042317 0.11240746 -0.07918149
0002d0 29 d1 d0 bb 8d 9f 4a bd 3e 27 27 bd d1 48 8a bd
       -0.00637259 -0.049468566 -0.04080891 -0.0675217
0002e0 32 70 d2 3d eb 78 93 bd ca cd a9 bc c0 ba e3 3d
       0.10275306 -0.07200798 -0.02072801 0.11119604
0002f0 aa 6f 19 3e 0f ed a2 3c 09 87 40 3d 45 ba 1c 3e
       0.14984003 0.019888429 0.04700378 0.15305431
000300 f7 54 32 3e f8 e9 46 3d 48 1d 06 be 64 96 55 3e
       0.17415224 0.048562974 -0.13097107 0.2085815
000310 46 f1 70 3e 32 5b 62 3e fb b0 8d 3e 08 ac 7e 3e
       0.23529539 0.22105101 0.27674088 0.24870312
000320 cb 3e 7b bd d2 43 33 be ce 08 00 3e 3d 87 bb bd
       -0.06133918 -0.1750634 0.12503359 -0.09156654
000330 e8 64 b0 3e 84 1b 81 3e 88 5a ac 3e b6 ac 94 3e
       0.34451985 0.25216305 0.3366282 0.29038018
000340 18 bd 72 be ee 0e ba bd 0a f8 6b be 04 2e 88 be
       -0.23704946 -0.09084879 -0.23043838 -0.26597607
000350 b6 61 20 3d 6b 47 15 3e 65 b5 6a 3e d8 d5 ff 3d
       0.039155684 0.14578025 0.22920759 0.12491959
000360 79 65 2f 3d 41 8a dd bd f5 80 70 3d 74 1e 2d be
       0.04282138 -0.108173855 0.058716733 -0.16906148
000370 90 e3 c4 bd b9 54 9e 3e dd aa 98 3e 77 a4 4a 3e
       -0.096137166 0.30924013 0.29817858 0.19789301
000380 40 55 84 3d e6 51 21 bc 22 16 41 3d 94 31 94 3d
       0.06461573 -0.009846186 0.047140248 0.07236019
000390 d5 15 39 be 31 48 3e be b2 f3 cf be 22 c8 6a be
       -0.18074735 -0.18582226 -0.40615612 -0.22927907
0003a0 56 8a 14 bf 1b 4c f3 be 21 34 b3 be 9b 9e 4d be
       -0.58023584 -0.47519 -0.3500071 -0.20080034
0003b0 f5 8d d4 bd e0 d6 a9 be 59 ee 0d 3d 46 8e cb 3c
       -0.10378639 -0.3317175 0.034651134 0.024848115
0003c0 af bb 29 3e db ee a3 3d 72 1d 1b 3e 4d 49 6c 3d
       0.16575502 0.080045424 0.15147951 0.057687093
0003d0 76 5b 17 3d 11 21 5e bf 7b 13 c2 bd 87 ee 99 be
       0.03695246 -0.86769205 -0.09476372 -0.30064794
0003e0 c3 3b 68 bc 9e cc 01 be 0a 1f 09 be 21 65 28 be
       -0.014174405 -0.12675712 -0.13390747 -0.16444828
0003f0 b9 07 1c be f3 3c ef bd 0c a3 10 bd 8f 3d e8 3b
       -0.15237321 -0.11681547 -0.035311744 0.0070874165

conv6.bias f4 [16]
000000 e4 16 c4 bc 09 55 b7 bd 55 73 a8 be d9 4c 74 bd
       -0.023936696 -0.08951766 -0.3290049 -0.0596436
000010 4d 93 58 bb 71 e4 20 be c0 31 dd 3d d3 d5 6a be
       -0.0033046782 -0.15712143 0.10800505 -0.2293313
000020 44 41 bd 3d b1 17 88 be 92 98 ac 3e 5d bc c5 bd
       0.09240964 -0.26580575 0.33710152 -0.09655068
000030 c0 a5 2a 3e ea 21 10 be 10 3e 22 3e 8d f2 94 3e
       0.16664791 -0.14075437 0.15843987 0.29091302

bn1.weight f4 [8]
000000 dd 37 31 3f 62 be 45 3f 31 6a d7 3f c7 5a 84 3f
       0.69225866 0.77243626 1.6829282 1.0340203
000010 4a ad 5c 3f 0d 5a a5 3f d0 bd 7d 3f 3a 5a 66 3f
       0.8620192 1.2918106 0.99117756 0.89981425

bn1.bias f4 [8]
000000 34 24 8a 3e f2 0d 33 3c d1 82 96 3d 0f b3 16 3e
       0.26980746 0.010928618 0.0734917 0.14716743
000010 fe e2 19 bf ec 04 b3 3d 0b 51 e3 3d 16 b5 b5 bd
       -0.6011199 0.08741173 0.11099442 -0.0887243

bn1.running_mean f4 [8]
000000 b5 01 aa 3e ca 3b 8f bd 94 44 df be a2 29 9c be
       0.33204427 -0.06993826 -0.43607008 -0.30500513
000010 72 f9 b0 be 7b 09 91 3e 41 b9 e1 3d 12 7e 15 3e
       -0.34565312 0.28327546 0.110216625 0.14598873

bn1.running_var f4 [8]
000000 62 3a 18 3f 20 1f 3d 3f d7 88 bb 3f 21 6d f6 3e
       0.59464085 0.7387562 1.4651135 0.48130134
000010 b9 9a 49 3f b5 27 48 3f 89 f1 24 3f 88 8b d6 3e
       0.78751713 0.7818559 0.64431053 0.4190333

bn2.weight f4 [16]
000000 74 dc c6 3f dd d0 7c 3f e2 f3 8f 3f f2 93 aa 3f
       1.5536027 0.987562 1.1246302 1.3326399
000010 52 9f 84 3f 6b df 56 3f b2 57 78 3f bd ad 91 3f
       1.0361121 0.8393466 0.9700881 1.1381146
000020 8f 75 5a 3f 15 95 83 3f 50 43 73 3f fd 01 86 3f
       0.8533563 1.0279871 0.95024586 1.0469357
000030 f2 09 8d 3f a0 e6 73 3f 21 11 40 3f a3 94 85 3f
       1.101866 0.9527378 0.75026137 1.0435985

bn2.bias f4 [16]
000000 46 d1 a9 bd ab 3e 72 3d 72 6e 97 be 60 f3 b1 be
       -0.08291869 0.059141796 -0.2957645 -0.34755993
000010 44 ba 9c be b5 2d 01 be bd 7c 4d be f2 48 30 be
       -0.3061086 -0.12615092 -0.20067115 -0.17215326
000020 7c a6 b0 bd 5b bc d5 be e1 60 be be 61 4f 11 be
       -0.086255044 -0.41745266 -0.37183288 -0.14190437
000030 54 a7 8f be 9b 21 6a be db 92 c9 3d ce 66 ff bc
       -0.2805735 -0.22864382 0.098424636 -0.03117695

bn2.running_mean f4 [16]
000000 e5 c0 0f c0 89 aa d1 bf 73 9c 9a bf 0f c0 b3 bf
       -2.2461483 -1.6380168 -1.2078995 -1.4042987
000010 2a 97 2f 3c f7 c7 2c c0 bd 73 90 3f 3e bb b1 bf
       0.010717193 -2.699705 1.128532 -1.3885267
000020 52 57 74 bb 73 ac 1b c0 b8 a6 1d c0 8b 63 9c 3f
       -0.0037283492 -2.4324005 -2.4633007 1.2217878
000030 45 5a de be 13 a2 2b 3f d2 db 4f c0 21 41 6c c0
       -0.43428245 0.6704418 -3.2477918 -3.6914752

bn2.running_var f4 [16]
000000 93 92 b1 40 6b b2 4a 40 d3 eb 9c 40 b1 e1 83 40
       5.5491424 3.1671398 4.903787 4.1213
000010 93 49 83 40 4e b4 e6 3f cb 51 a6 40 e6 21 69 40
       4.102731 1.8023775 5.1974845 3.642694
000020 65 de 6c 40 f6 00 41 40 30 f6 ab 3f 0e 02 f7 40
       3.701074 3.0156837 1.3434505 7.719001
000030 8e 61 ca 40 56 72 76 40 1a bb b0 3f c0 6f 2c 40
       6.3244085 3.8507285 1.3807099 2.6943207

bn3.weight f4 [16]
000000 2d e5 72 3f c8 9c 96 3f 77 c5 56 3f cb bc 8d 3f
       0.94880944 1.1766596 0.8389506 1.107324
000010 15 7f 88 3f 86 b6 77 3f 93 89 aa 3f 5d 14 a8 3f
       1.0663782 0.96762884 1.3323234 1.3131214
000020 a1 28 56 3f 7f 4c 7c 3f f5 d8 63 3f b3 7d 90 3f
       0.83655745 0.98554224 0.89002925 1.128836
000030 43 d2 8a 3f 7b c7 61 3f bb c1 83 3f 3e e3 61 3f
       1.0845417 0.8819501 1.0293497 0.8823737

bn3.bias f4 [16]
000000 bb 62 fe bd 1a 72 b3 3d c2 6d 94 be 6a 3f bd bc
       -0.12421175 0.087619975 -0.2898999 -0.023101527
000010 07 0a f2 bd f1 ee c2 be 1c 5b 09 3e 0e 70 95 be
       -0.11818319 -0.38072923 0.13413662 -0.29187053
000020 e9 17 cf be b3 85 92 be e6 fd 97 bd 72 64 22 be
       -0.4044793 -0.2861763 -0.07421474 -0.1585863
000030 e2 00 bf bd 51 3b 60 be c4 46 67 be e8 38 81 be
       -0.0932634 -0.21897627 -0.22585589 -0.2523873

bn3.running_mean f4 [16]
000000 e6 fe 0a bf 64 3a ea bf b1 9c 49 bf d7 96 5a bf
       -0.54295194 -1.829907 -0.7875472 -0.85386413
000010 b5 0c 67 bf 9f fb 20 bf 83 b0 0c c0 34 d8 69 c0
       -0.90253764 -0.62883943 -2.1982734 -3.653821
000020 b0 bc 2e 3e 7f fb d8 bf 1e 23 ae 3f a0 f1 3c c0
       0.17064166 -1.695175 1.3604467 -2.9522476
000030 42 54 2d c0 f2 e9 da be 17 3f 9a bf 2b a6 0a bf
       -2.7082677 -0.4275661 -1.2050503 -0.541598

bn3.running_var f4 [16]
000000 1d 5d ff 40 18 8d 83 41 32 90 d4 40 4f b0 3e 41
       7.9801164 16.443893 6.642602 11.918044
000010 a9 df 29 41 b9 18 04 41 c4 62 85 41 b1 f8 8d 41
       10.617105 8.256036 16.673225 17.746431
000020 40 7a 27 41 a2 eb 3f 41 bd 2a 03 41 3c f9 69 41
       10.467346 11.995028 8.197934 14.623348
000030 c8 3e 43 41 30 e9 1b 41 7e e2 1c 41 13 10 fe 40
       12.202827 9.744431 9.805296 7.939462

bn4.weight f4 [16]
000000 e4 92 89 3f 45 09 8d 3f 23 88 88 3f fc 38 71 3f
       1.0747952 1.1018454 1.0666546 0.94227576
000010 d4 11 74 3f db ef 86 3f 4f bf 77 3f 0a 6d 40 3f
       0.95339704 1.0541948 0.9677629 0.7516638
000020 6b 54 66 3f 10 65 6d 3f cb 92 64 3f 60 43 6c 3f
       0.8997256 0.92732334 0.8928649 0.92290306
000030 d7 83 76 3f 7b 13 68 3f e3 ab 23 3f 93 34 5b 3f
       0.9629492 0.90654725 0.63934153 0.85627097

bn4.bias f4 [16]
000000 be 8f 0b bf aa 0b 32 bf 18 27 c4 be 77 74 e6 be
       -0.5451621 -0.6954905 -0.38311076 -0.4501073
000010 91 26 0d bf 62 8f dd be c3 fc 07 bf 67 94 80 be
       -0.5513697 -0.43273455 -0.5312006 -0.25113222
000020 7f 9a d5 be 33 dd 34 bf 48 2d 31 bf fb 99 48 bf
       -0.41719434 -0.70650023 -0.6920972 -0.78359956
000030 3e 05 ec be cc a7 f0 be e8 a1 12 bf 77 01 48 be
       -0.4609775 -0.4700302 -0.572783 -0.19531809

bn4.running_mean f4 [16]
000000 95 25 44 c0 82 b3 8a bf a3 76 8d be 4c 9e ba 3e
       -3.0647938 -1.0836031 -0.27629575 0.36448896
000010 b6 78 a6 bf 9b ff 18 c0 17 75 56 bf c7 46 4c c0
       -1.3005588 -2.390601 -0.83772415 -3.19182
000020 f6 e2 83 bf a8 31 6a bf 63 85 c1 bf ff 44 25 c0
       -1.0303638 -0.9148202 -1.5118831 -2.5823362
000030 d7 3d c9 bf 0e 25 f6 bf 5d 04 53 bf 43 14 c6 bf
       -1.5721997 -1.9230058 -0.8242853 -1.5474933

bn4.running_var f4 [16]
000000 07 55 6a 40 dc e2 93 40 93 ee b9 40 d5 79 73 40
       3.6614397 4.621443 5.810373 3.804311
000010 f0 3c 50 40 a5 27 66 40 f4 fc 8c 40 65 8e 23 40
       3.2537193 3.5961697 4.405878 2.555566
000020 52 ba 76 40 54 8c 8f 40 b1 73 50 40 d4 90 1e 40
       3.855122 4.48588 3.2570612 2.4775896
000030 af 93 5a 40 e3 71 79 40 1c ee 23 40 35 fc 4f 40
       3.415264 3.897576 2.561408 3.2497685

bn5.weight f4 [16]
000000 44 a0 87 3f 13 34 46 3f ce 84 87 3f d4 fd 82 3f
       1.0595784 0.7742321 1.0587404 1.0233712
000010 81 4d 5a 3f 54 2c 7c 3f c8 b5 87 3f cc 21 85 3f
       0.8527451 0.9850514 1.060235 1.0400939
000020 63 a5 7e 3f df eb 78 3f 9d 85 76 3f 6f 8c 1f 3f
       0.9947111 0.9723491 0.9629763 0.6232366
000030 84 fd 3b 3f 92 65 7c 3f be 58 71 3f 87 10 48 3f
       0.7343371 0.98592484 0.94276035 0.7815022

bn5.bias f4 [16]
000000 0d 24 f8 be 4e 66 c9 be fc 67 04 bf 59 ff e3 be
       -0.48465005 -0.39335865 -0.5172117 -0.44530752
000010 86 fd be be 6f c0 e9 be 00 e0 bf be aa af 90 be
       -0.37302798 -0.45654628 -0.37475586 -0.2825902
000020 58 81 0b bf df 0c 08 bf e0 60 09 bf 35 ff b5 be
       -0.5449424 -0.5314464 -0.53663445 -0.3554627
000030 c6 0a e0 bd 12 e6 e1 be 5a 83 16 bf 85 e3 65 3d
       -0.10939555 -0.44120842 -0.58794177 0.056125183

bn5.running_mean f4 [16]
000000 95 ea a7 c0 99 52 4e bf f9 00 97 c0 4b 64 8e bf
       -5.2473855 -0.80594784 -4.7188687 -1.1124357
000010 fb 07 20 3f 6f 90 14 c0 5f 2d 31 c0 d2 94 9f bf
       0.6251218 -2.3213155 -2.7683942 -1.2467291
000020 3e 15 5b bf 85 af 3f be 9d 39 2d bf 29 5f 69 3f
       -0.8557929 -0.18719299 -0.67666036 0.9116083
000030 e7 80 e7 be b0 fc 7b c0 3e df d3 bf 3b e1 fd be
       -0.45215532 -3.9372978 -1.6552503 -0.495859

bn5.running_var f4 [16]
000000 38 45 02 41 92 73 9c 40 10 54 0c 41 88 21 b1 40
       8.141899 4.8891077 8.770523 5.535343
000010 e7 3a 8c 40 c7 4f bb 40 d7 48 d4 40 23 a8 06 41
       4.38219 5.8534884 6.6338916 8.416049
000020 d0 7f 6b 40 5e 21 93 40 39 bc 9d 40 e5 66 3f 40
       3.679676 4.597823 4.9292264 2.9906552
000030 28 9c 89 40 5c f7 bf 40 7d bd 87 40 0b f9 b4 40
       4.300312 5.998945 4.241881 5.6554008

bn6.weight f4 [16]
000000 14 32 a3 3f e0 29 bf 3f 4f 83 a6 3f ae 95 b0 3f
       1.2749658 1.4934654 1.3008822 1.3795679
000010 e8 f1 b5 3f a8 c4 a3 3f 6a cc b2 3f 29 33 b5 3f
       1.4214449 1.279439 1.3968632 1.4156238
000020 f1 21 bb 3f 28 45 c1 3f fe 7d b3 3f 27 df c1 3f
       1.4619733 1.509923 1.4022825 1.5146226
000030 d3 d9 bd 3f a5 d1 b7 3f c0 7c a4 3f ef 0d ae 3f
       1.48321 1.4360853 1.2850571 1.3598002

bn6.bias f4 [16]
000000 40 a4 dd 3e b7 51 07 bd 46 82 b6 3e ba e9 80 3e
       0.43289375 -0.033036914 0.35646266 0.2517832
000010 b2 b4 49 be 76 9e 8d 3e c2 29 ac 3d 88 ae 64 3c
       -0.19697836 0.2765996 0.08406402 0.013957627
000020 7e 95 17 3d 96 67 77 bb 17 30 89 3e 29 12 c1 bc
       0.0370078 -0.003775095 0.26794502 -0.02356823
000030 ef 46 7c 3e e0 4c 72 3d ac d3 6f 3d 2b c3 a2 bd
       0.24636434 0.059155345 0.058551475 -0.079473816

bn6.running_mean f4 [16]
000000 d0 80 89 bf 43 9f 99 bf 0c 67 65 bf 9d 74 a1 be
       -1.0742435 -1.2001728 -0.8961036 -0.3153428
000010 53 9c eb bf f2 d2 68 bf d3 32 27 bf ba 8c c6 bf
       -1.8407081 -0.90946877 -0.65311927 -1.5511696
000020 43 ff 7d bf 21 d6 d4 bf f2 47 da be b6 88 e0 bf
       -0.99217623 -1.6627847 -0.42633015 -1.7541721
000030 7b 5c 7c bf c0 cb c5 bf e0 0a 97 be d7 e2 06 bf
       -0.98578614 -1.5452805 -0.29500484 -0.5268988

bn6.running_var f4 [16]
000000 a7 2b ac 3f d9 5f 89 3f 72 19 d3 3f da 49 8f 3f
       1.3450822 1.0732375 1.649214 1.1194413
000010 1d 2c cb 3f 69 c0 95 3f e1 7c a1 3f 94 8a 98 3f
       1.5872837 1.1699344 1.2616235 1.1917291
000020 a4 45 ad 3f a4 eb af 3f d5 b8 bf 3f 7e e4 a7 3f
       1.3536878 1.3743787 1.4978281 1.3116605
000030 83 f9 b6 3f d7 35 d8 3f 71 fd 9d 3f b1 a0 a9 3f
       1.4294895 1.6891431 1.2342969 1.3252164
